…
I0701 22:22:07.019752 18021 net.cpp:322] The NetState phase (0) differed from the phase (1) specified by a rule in layer accuracy
I0701 22:22:07.020174 18021 net.cpp:58] Initializing net from parameters: 
name: "ReID_Net"
state {
  phase: TRAIN
  level: 0
  stage: ""
}
layer {
  name: "data"
  type: "Data"
  top: "data"
  top: "label"
  include {
    phase: TRAIN
  }
  transform_param {
    mean_value: 104
    mean_value: 117
    mean_value: 123
  }
  data_param {
    source: "./build/icdar2013_sub_classifier"
    batch_size: 32
    backend: LMDB
  }
}
layer {
  name: "conv1/7x7_s2"
  type: "Convolution"
  bottom: "data"
  top: "conv1/7x7_s2"
  param {
    lr_mult: 1
    decay_mult: 1
  }
  param {
    lr_mult: 2
    decay_mult: 0
  }
  convolution_param {
    num_output: 64
    pad: 3
    kernel_size: 7
    stride: 2
    weight_filler {
      type: "xavier"
      std: 0.1
    }
    bias_filler {
      type: "constant"
      value: 0.2
    }
  }
}
layer {
  name: "conv1/relu_7x7"
  type: "ReLU"
  bottom: "conv1/7x7_s2"
  top: "conv1/7x7_s2"
}
layer {
  name: "pool1/3x3_s2"
  type: "Pooling"
  bottom: "conv1/7x7_s2"
  top: "pool1/3x3_s2"
  pooling_param {
    pool: MAX
    kernel_size: 3
    stride: 2
  }
}
layer {
  name: "pool1/norm1"
  type: "LRN"
  bottom: "pool1/3x3_s2"
  top: "pool1/norm1"
  lrn_param {
    local_size: 5
    alpha: 0.0001
    beta: 0.75
  }
}
layer {
  name: "conv2/3x3_reduce"
  type: "Convolution"
  bottom: "pool1/norm1"
  top: "conv2/3x3_reduce"
  param {
    lr_mult: 1
    decay_mult: 1
  }
  param {
    lr_mult: 2
    decay_mult: 0
  }
  convolution_param {
    num_output: 64
    kernel_size: 1
    weight_filler {
      type: "xavier"
      std: 0.1
    }
    bias_filler {
      type: "constant"
      value: 0.2
    }
  }
}
layer {
  name: "conv2/relu_3x3_reduce"
  type: "ReLU"
  bottom: "conv2/3x3_reduce"
  top: "conv2/3x3_reduce"
}
layer {
  name: "conv2/3x3"
  type: "Convolution"
  bottom: "conv2/3x3_reduce"
  top: "conv2/3x3"
  param {
    lr_mult: 1
    decay_mult: 1
  }
  param {
    lr_mult: 2
    decay_mult: 0
  }
  convolution_param {
    num_output: 192
    pad: 1
    kernel_size: 3
    weight_filler {
      type: "xavier"
      std: 0.03
    }
    bias_filler {
      type: "constant"
      value: 0.2
    }
  }
}
layer {
  name: "conv2/relu_3x3"
  type: "ReLU"
  bottom: "conv2/3x3"
  top: "conv2/3x3"
}
layer {
  name: "conv2/norm2"
  type: "LRN"
  bottom: "conv2/3x3"
  top: "conv2/norm2"
  lrn_param {
    local_size: 5
    alpha: 0.0001
    beta: 0.75
  }
}
layer {
  name: "pool2/3x3_s2"
  type: "Pooling"
  bottom: "conv2/norm2"
  top: "pool2/3x3_s2"
  pooling_param {
    pool: MAX
    kernel_size: 3
    stride: 2
  }
}
layer {
  name: "inception_3a/1x1"
  type: "Convolution"
  bottom: "pool2/3x3_s2"
  top: "inception_3a/1x1"
  param {
    lr_mult: 1
    decay_mult: 1
  }
  param {
    lr_mult: 2
    decay_mult: 0
  }
  convolution_param {
    num_output: 64
    kernel_size: 1
    weight_filler {
      type: "xavier"
      std: 0.03
    }
    bias_filler {
      type: "constant"
      value: 0.2
    }
  }
}
layer {
  name: "inception_3a/relu_1x1"
  type: "ReLU"
  bottom: "inception_3a/1x1"
  top: "inception_3a/1x1"
}
layer {
  name: "inception_3a/3x3_reduce"
  type: "Convolution"
  bottom: "pool2/3x3_s2"
  top: "inception_3a/3x3_reduce"
  param {
    lr_mult: 1
    decay_mult: 1
  }
  param {
    lr_mult: 2
    decay_mult: 0
  }
  convolution_param {
    num_output: 96
    kernel_size: 1
    weight_filler {
      type: "xavier"
      std: 0.09
    }
    bias_filler {
      type: "constant"
      value: 0.2
    }
  }
}
layer {
  name: "inception_3a/relu_3x3_reduce"
  type: "ReLU"
  bottom: "inception_3a/3x3_reduce"
  top: "inception_3a/3x3_reduce"
}
layer {
  name: "inception_3a/3x3"
  type: "Convolution"
  bottom: "inception_3a/3x3_reduce"
  top: "inception_3a/3x3"
  param {
    lr_mult: 1
    decay_mult: 1
  }
  param {
    lr_mult: 2
    decay_mult: 0
  }
  convolution_param {
    num_output: 128
    pad: 1
    kernel_size: 3
    weight_filler {
      type: "xavier"
      std: 0.03
    }
    bias_filler {
      type: "constant"
      value: 0.2
    }
  }
}
layer {
  name: "inception_3a/relu_3x3"
  type: "ReLU"
  bottom: "inception_3a/3x3"
  top: "inception_3a/3x3"
}
layer {
  name: "inception_3a/5x5_reduce"
  type: "Convolution"
  bottom: "pool2/3x3_s2"
  top: "inception_3a/5x5_reduce"
  param {
    lr_mult: 1
    decay_mult: 1
  }
  param {
    lr_mult: 2
    decay_mult: 0
  }
  convolution_param {
    num_output: 16
    kernel_size: 1
    weight_filler {
      type: "xavier"
      std: 0.2
    }
    bias_filler {
      type: "constant"
      value: 0.2
    }
  }
}
layer {
  name: "inception_3a/relu_5x5_reduce"
  type: "ReLU"
  bottom: "inception_3a/5x5_reduce"
  top: "inception_3a/5x5_reduce"
}
layer {
  name: "inception_3a/5x5"
  type: "Convolution"
  bottom: "inception_3a/5x5_reduce"
  top: "inception_3a/5x5"
  param {
    lr_mult: 1
    decay_mult: 1
  }
  param {
    lr_mult: 2
    decay_mult: 0
  }
  convolution_param {
    num_output: 32
    pad: 2
    kernel_size: 5
    weight_filler {
      type: "xavier"
      std: 0.03
    }
    bias_filler {
      type: "constant"
      value: 0.2
    }
  }
}
layer {
  name: "inception_3a/relu_5x5"
  type: "ReLU"
  bottom: "inception_3a/5x5"
  top: "inception_3a/5x5"
}
layer {
  name: "inception_3a/pool"
  type: "Pooling"
  bottom: "pool2/3x3_s2"
  top: "inception_3a/pool"
  pooling_param {
    pool: MAX
    kernel_size: 3
    stride: 1
    pad: 1
  }
}
layer {
  name: "inception_3a/pool_proj"
  type: "Convolution"
  bottom: "inception_3a/pool"
  top: "inception_3a/pool_proj"
  param {
    lr_mult: 1
    decay_mult: 1
  }
  param {
    lr_mult: 2
    decay_mult: 0
  }
  convolution_param {
    num_output: 32
    kernel_size: 1
    weight_filler {
      type: "xavier"
      std: 0.1
    }
    bias_filler {
      type: "constant"
      value: 0.2
    }
  }
}
layer {
  name: "inception_3a/relu_pool_proj"
  type: "ReLU"
  bottom: "inception_3a/pool_proj"
  top: "inception_3a/pool_proj"
}
layer {
  name: "inception_3a/output"
  type: "Concat"
  bottom: "inception_3a/1x1"
  bottom: "inception_3a/3x3"
  bottom: "inception_3a/5x5"
  bottom: "inception_3a/pool_proj"
  top: "inception_3a/output"
}
layer {
  name: "inception_3b/1x1"
  type: "Convolution"
  bottom: "inception_3a/output"
  top: "inception_3b/1x1"
  param {
    lr_mult: 1
    decay_mult: 1
  }
  param {
    lr_mult: 2
    decay_mult: 0
  }
  convolution_param {
    num_output: 128
    kernel_size: 1
    weight_filler {
      type: "xavier"
      std: 0.03
    }
    bias_filler {
      type: "constant"
      value: 0.2
    }
  }
}
layer {
  name: "inception_3b/relu_1x1"
  type: "ReLU"
  bottom: "inception_3b/1x1"
  top: "inception_3b/1x1"
}
layer {
  name: "inception_3b/3x3_reduce"
  type: "Convolution"
  bottom: "inception_3a/output"
  top: "inception_3b/3x3_reduce"
  param {
    lr_mult: 1
    decay_mult: 1
  }
  param {
    lr_mult: 2
    decay_mult: 0
  }
  convolution_param {
    num_output: 128
    kernel_size: 1
    weight_filler {
      type: "xavier"
      std: 0.09
    }
    bias_filler {
      type: "constant"
      value: 0.2
    }
  }
}
layer {
  name: "inception_3b/relu_3x3_reduce"
  type: "ReLU"
  bottom: "inception_3b/3x3_reduce"
  top: "inception_3b/3x3_reduce"
}
layer {
  name: "inception_3b/3x3"
  type: "Convolution"
  bottom: "inception_3b/3x3_reduce"
  top: "inception_3b/3x3"
  param {
    lr_mult: 1
    decay_mult: 1
  }
  param {
    lr_mult: 2
    decay_mult: 0
  }
  convolution_param {
    num_output: 192
    pad: 1
    kernel_size: 3
    weight_filler {
      type: "xavier"
      std: 0.03
    }
    bias_filler {
      type: "constant"
      value: 0.2
    }
  }
}
layer {
  name: "inception_3b/relu_3x3"
  type: "ReLU"
  bottom: "inception_3b/3x3"
  top: "inception_3b/3x3"
}
layer {
  name: "inception_3b/5x5_reduce"
  type: "Convolution"
  bottom: "inception_3a/output"
  top: "inception_3b/5x5_reduce"
  param {
    lr_mult: 1
    decay_mult: 1
  }
  param {
    lr_mult: 2
    decay_mult: 0
  }
  convolution_param {
    num_output: 32
    kernel_size: 1
    weight_filler {
      type: "xavier"
      std: 0.2
    }
    bias_filler {
      type: "constant"
      value: 0.2
    }
  }
}
layer {
  name: "inception_3b/relu_5x5_reduce"
  type: "ReLU"
  bottom: "inception_3b/5x5_reduce"
  top: "inception_3b/5x5_reduce"
}
layer {
  name: "inception_3b/5x5"
  type: "Convolution"
  bottom: "inception_3b/5x5_reduce"
  top: "inception_3b/5x5"
  param {
    lr_mult: 1
    decay_mult: 1
  }
  param {
    lr_mult: 2
    decay_mult: 0
  }
  convolution_param {
    num_output: 96
    pad: 2
    kernel_size: 5
    weight_filler {
      type: "xavier"
      std: 0.03
    }
    bias_filler {
      type: "constant"
      value: 0.2
    }
  }
}
layer {
  name: "inception_3b/relu_5x5"
  type: "ReLU"
  bottom: "inception_3b/5x5"
  top: "inception_3b/5x5"
}
layer {
  name: "inception_3b/pool"
  type: "Pooling"
  bottom: "inception_3a/output"
  top: "inception_3b/pool"
  pooling_param {
    pool: MAX
    kernel_size: 3
    stride: 1
    pad: 1
  }
}
layer {
  name: "inception_3b/pool_proj"
  type: "Convolution"
  bottom: "inception_3b/pool"
  top: "inception_3b/pool_proj"
  param {
    lr_mult: 1
    decay_mult: 1
  }
  param {
    lr_mult: 2
    decay_mult: 0
  }
  convolution_param {
    num_output: 64
    kernel_size: 1
    weight_filler {
      type: "xavier"
      std: 0.1
    }
    bias_filler {
      type: "constant"
      value: 0.2
    }
  }
}
layer {
  name: "inception_3b/relu_pool_proj"
  type: "ReLU"
  bottom: "inception_3b/pool_proj"
  top: "inception_3b/pool_proj"
}
layer {
  name: "inception_3b/output"
  type: "Concat"
  bottom: "inception_3b/1x1"
  bottom: "inception_3b/3x3"
  bottom: "inception_3b/5x5"
  bottom: "inception_3b/pool_proj"
  top: "inception_3b/output"
}
layer {
  name: "pool3/3x3_s2"
  type: "Pooling"
  bottom: "inception_3b/output"
  top: "pool3/3x3_s2"
  pooling_param {
    pool: MAX
    kernel_size: 3
    stride: 2
  }
}
layer {
  name: "inception_4a/1x1"
  type: "Convolution"
  bottom: "pool3/3x3_s2"
  top: "inception_4a/1x1"
  param {
    lr_mult: 1
    decay_mult: 1
  }
  param {
    lr_mult: 2
    decay_mult: 0
  }
  convolution_param {
    num_output: 192
    kernel_size: 1
    weight_filler {
      type: "xavier"
      std: 0.03
    }
    bias_filler {
      type: "constant"
      value: 0.2
    }
  }
}
layer {
  name: "inception_4a/relu_1x1"
  type: "ReLU"
  bottom: "inception_4a/1x1"
  top: "inception_4a/1x1"
}
layer {
  name: "inception_4a/3x3_reduce"
  type: "Convolution"
  bottom: "pool3/3x3_s2"
  top: "inception_4a/3x3_reduce"
  param {
    lr_mult: 1
    decay_mult: 1
  }
  param {
    lr_mult: 2
    decay_mult: 0
  }
  convolution_param {
    num_output: 96
    kernel_size: 1
    weight_filler {
      type: "xavier"
      std: 0.09
    }
    bias_filler {
      type: "constant"
      value: 0.2
    }
  }
}
layer {
  name: "inception_4a/relu_3x3_reduce"
  type: "ReLU"
  bottom: "inception_4a/3x3_reduce"
  top: "inception_4a/3x3_reduce"
}
layer {
  name: "inception_4a/3x3"
  type: "Convolution"
  bottom: "inception_4a/3x3_reduce"
  top: "inception_4a/3x3"
  param {
    lr_mult: 1
    decay_mult: 1
  }
  param {
    lr_mult: 2
    decay_mult: 0
  }
  convolution_param {
    num_output: 208
    pad: 1
    kernel_size: 3
    weight_filler {
      type: "xavier"
      std: 0.03
    }
    bias_filler {
      type: "constant"
      value: 0.2
    }
  }
}
layer {
  name: "inception_4a/relu_3x3"
  type: "ReLU"
  bottom: "inception_4a/3x3"
  top: "inception_4a/3x3"
}
layer {
  name: "inception_4a/5x5_reduce"
  type: "Convolution"
  bottom: "pool3/3x3_s2"
  top: "inception_4a/5x5_reduce"
  param {
    lr_mult: 1
    decay_mult: 1
  }
  param {
    lr_mult: 2
    decay_mult: 0
  }
  convolution_param {
    num_output: 16
    kernel_size: 1
    weight_filler {
      type: "xavier"
      std: 0.2
    }
    bias_filler {
      type: "constant"
      value: 0.2
    }
  }
}
layer {
  name: "inception_4a/relu_5x5_reduce"
  type: "ReLU"
  bottom: "inception_4a/5x5_reduce"
  top: "inception_4a/5x5_reduce"
}
layer {
  name: "inception_4a/5x5"
  type: "Convolution"
  bottom: "inception_4a/5x5_reduce"
  top: "inception_4a/5x5"
  param {
    lr_mult: 1
    decay_mult: 1
  }
  param {
    lr_mult: 2
    decay_mult: 0
  }
  convolution_param {
    num_output: 48
    pad: 2
    kernel_size: 5
    weight_filler {
      type: "xavier"
      std: 0.03
    }
    bias_filler {
      type: "constant"
      value: 0.2
    }
  }
}
layer {
  name: "inception_4a/relu_5x5"
  type: "ReLU"
  bottom: "inception_4a/5x5"
  top: "inception_4a/5x5"
}
layer {
  name: "inception_4a/pool"
  type: "Pooling"
  bottom: "pool3/3x3_s2"
  top: "inception_4a/pool"
  pooling_param {
    pool: MAX
    kernel_size: 3
    stride: 1
    pad: 1
  }
}
layer {
  name: "inception_4a/pool_proj"
  type: "Convolution"
  bottom: "inception_4a/pool"
  top: "inception_4a/pool_proj"
  param {
    lr_mult: 1
    decay_mult: 1
  }
  param {
    lr_mult: 2
    decay_mult: 0
  }
  convolution_param {
    num_output: 64
    kernel_size: 1
    weight_filler {
      type: "xavier"
      std: 0.1
    }
    bias_filler {
      type: "constant"
      value: 0.2
    }
  }
}
layer {
  name: "inception_4a/relu_pool_proj"
  type: "ReLU"
  bottom: "inception_4a/pool_proj"
  top: "inception_4a/pool_proj"
}
layer {
  name: "inception_4a/output"
  type: "Concat"
  bottom: "inception_4a/1x1"
  bottom: "inception_4a/3x3"
  bottom: "inception_4a/5x5"
  bottom: "inception_4a/pool_proj"
  top: "inception_4a/output"
}
layer {
  name: "inception_4b/1x1"
  type: "Convolution"
  bottom: "inception_4a/output"
  top: "inception_4b/1x1"
  param {
    lr_mult: 1
    decay_mult: 1
  }
  param {
    lr_mult: 2
    decay_mult: 0
  }
  convolution_param {
    num_output: 160
    kernel_size: 1
    weight_filler {
      type: "xavier"
      std: 0.03
    }
    bias_filler {
      type: "constant"
      value: 0.2
    }
  }
}
layer {
  name: "inception_4b/relu_1x1"
  type: "ReLU"
  bottom: "inception_4b/1x1"
  top: "inception_4b/1x1"
}
layer {
  name: "inception_4b/3x3_reduce"
  type: "Convolution"
  bottom: "inception_4a/output"
  top: "inception_4b/3x3_reduce"
  param {
    lr_mult: 1
    decay_mult: 1
  }
  param {
    lr_mult: 2
    decay_mult: 0
  }
  convolution_param {
    num_output: 112
    kernel_size: 1
    weight_filler {
      type: "xavier"
      std: 0.09
    }
    bias_filler {
      type: "constant"
      value: 0.2
    }
  }
}
layer {
  name: "inception_4b/relu_3x3_reduce"
  type: "ReLU"
  bottom: "inception_4b/3x3_reduce"
  top: "inception_4b/3x3_reduce"
}
layer {
  name: "inception_4b/3x3"
  type: "Convolution"
  bottom: "inception_4b/3x3_reduce"
  top: "inception_4b/3x3"
  param {
    lr_mult: 1
    decay_mult: 1
  }
  param {
    lr_mult: 2
    decay_mult: 0
  }
  convolution_param {
    num_output: 224
    pad: 1
    kernel_size: 3
    weight_filler {
      type: "xavier"
      std: 0.03
    }
    bias_filler {
      type: "constant"
      value: 0.2
    }
  }
}
layer {
  name: "inception_4b/relu_3x3"
  type: "ReLU"
  bottom: "inception_4b/3x3"
  top: "inception_4b/3x3"
}
layer {
  name: "inception_4b/5x5_reduce"
  type: "Convolution"
  bottom: "inception_4a/output"
  top: "inception_4b/5x5_reduce"
  param {
    lr_mult: 1
    decay_mult: 1
  }
  param {
    lr_mult: 2
    decay_mult: 0
  }
  convolution_param {
    num_output: 24
    kernel_size: 1
    weight_filler {
      type: "xavier"
      std: 0.2
    }
    bias_filler {
      type: "constant"
      value: 0.2
    }
  }
}
layer {
  name: "inception_4b/relu_5x5_reduce"
  type: "ReLU"
  bottom: "inception_4b/5x5_reduce"
  top: "inception_4b/5x5_reduce"
}
layer {
  name: "inception_4b/5x5"
  type: "Convolution"
  bottom: "inception_4b/5x5_reduce"
  top: "inception_4b/5x5"
  param {
    lr_mult: 1
    decay_mult: 1
  }
  param {
    lr_mult: 2
    decay_mult: 0
  }
  convolution_param {
    num_output: 64
    pad: 2
    kernel_size: 5
    weight_filler {
      type: "xavier"
      std: 0.03
    }
    bias_filler {
      type: "constant"
      value: 0.2
    }
  }
}
layer {
  name: "inception_4b/relu_5x5"
  type: "ReLU"
  bottom: "inception_4b/5x5"
  top: "inception_4b/5x5"
}
layer {
  name: "inception_4b/pool"
  type: "Pooling"
  bottom: "inception_4a/output"
  top: "inception_4b/pool"
  pooling_param {
    pool: MAX
    kernel_size: 3
    stride: 1
    pad: 1
  }
}
layer {
  name: "inception_4b/pool_proj"
  type: "Convolution"
  bottom: "inception_4b/pool"
  top: "inception_4b/pool_proj"
  param {
    lr_mult: 1
    decay_mult: 1
  }
  param {
    lr_mult: 2
    decay_mult: 0
  }
  convolution_param {
    num_output: 64
    kernel_size: 1
    weight_filler {
      type: "xavier"
      std: 0.1
    }
    bias_filler {
      type: "constant"
      value: 0.2
    }
  }
}
layer {
  name: "inception_4b/relu_pool_proj"
  type: "ReLU"
  bottom: "inception_4b/pool_proj"
  top: "inception_4b/pool_proj"
}
layer {
  name: "inception_4b/output"
  type: "Concat"
  bottom: "inception_4b/1x1"
  bottom: "inception_4b/3x3"
  bottom: "inception_4b/5x5"
  bottom: "inception_4b/pool_proj"
  top: "inception_4b/output"
}
layer {
  name: "inception_4c/1x1"
  type: "Convolution"
  bottom: "inception_4b/output"
  top: "inception_4c/1x1"
  param {
    lr_mult: 1
    decay_mult: 1
  }
  param {
    lr_mult: 2
    decay_mult: 0
  }
  convolution_param {
    num_output: 128
    kernel_size: 1
    weight_filler {
      type: "xavier"
      std: 0.03
    }
    bias_filler {
      type: "constant"
      value: 0.2
    }
  }
}
layer {
  name: "inception_4c/relu_1x1"
  type: "ReLU"
  bottom: "inception_4c/1x1"
  top: "inception_4c/1x1"
}
layer {
  name: "inception_4c/3x3_reduce"
  type: "Convolution"
  bottom: "inception_4b/output"
  top: "inception_4c/3x3_reduce"
  param {
    lr_mult: 1
    decay_mult: 1
  }
  param {
    lr_mult: 2
    decay_mult: 0
  }
  convolution_param {
    num_output: 128
    kernel_size: 1
    weight_filler {
      type: "xavier"
      std: 0.09
    }
    bias_filler {
      type: "constant"
      value: 0.2
    }
  }
}
layer {
  name: "inception_4c/relu_3x3_reduce"
  type: "ReLU"
  bottom: "inception_4c/3x3_reduce"
  top: "inception_4c/3x3_reduce"
}
layer {
  name: "inception_4c/3x3"
  type: "Convolution"
  bottom: "inception_4c/3x3_reduce"
  top: "inception_4c/3x3"
  param {
    lr_mult: 1
    decay_mult: 1
  }
  param {
    lr_mult: 2
    decay_mult: 0
  }
  convolution_param {
    num_output: 256
    pad: 1
    kernel_size: 3
    weight_filler {
      type: "xavier"
      std: 0.03
    }
    bias_filler {
      type: "constant"
      value: 0.2
    }
  }
}
layer {
  name: "inception_4c/relu_3x3"
  type: "ReLU"
  bottom: "inception_4c/3x3"
  top: "inception_4c/3x3"
}
layer {
  name: "inception_4c/5x5_reduce"
  type: "Convolution"
  bottom: "inception_4b/output"
  top: "inception_4c/5x5_reduce"
  param {
    lr_mult: 1
    decay_mult: 1
  }
  param {
    lr_mult: 2
    decay_mult: 0
  }
  convolution_param {
    num_output: 24
    kernel_size: 1
    weight_filler {
      type: "xavier"
      std: 0.2
    }
    bias_filler {
      type: "constant"
      value: 0.2
    }
  }
}
layer {
  name: "inception_4c/relu_5x5_reduce"
  type: "ReLU"
  bottom: "inception_4c/5x5_reduce"
  top: "inception_4c/5x5_reduce"
}
layer {
  name: "inception_4c/5x5"
  type: "Convolution"
  bottom: "inception_4c/5x5_reduce"
  top: "inception_4c/5x5"
  param {
    lr_mult: 1
    decay_mult: 1
  }
  param {
    lr_mult: 2
    decay_mult: 0
  }
  convolution_param {
    num_output: 64
    pad: 2
    kernel_size: 5
    weight_filler {
      type: "xavier"
      std: 0.03
    }
    bias_filler {
      type: "constant"
      value: 0.2
    }
  }
}
layer {
  name: "inception_4c/relu_5x5"
  type: "ReLU"
  bottom: "inception_4c/5x5"
  top: "inception_4c/5x5"
}
layer {
  name: "inception_4c/pool"
  type: "Pooling"
  bottom: "inception_4b/output"
  top: "inception_4c/pool"
  pooling_param {
    pool: MAX
    kernel_size: 3
    stride: 1
    pad: 1
  }
}
layer {
  name: "inception_4c/pool_proj"
  type: "Convolution"
  bottom: "inception_4c/pool"
  top: "inception_4c/pool_proj"
  param {
    lr_mult: 1
    decay_mult: 1
  }
  param {
    lr_mult: 2
    decay_mult: 0
  }
  convolution_param {
    num_output: 64
    kernel_size: 1
    weight_filler {
      type: "xavier"
      std: 0.1
    }
    bias_filler {
      type: "constant"
      value: 0.2
    }
  }
}
layer {
  name: "inception_4c/relu_pool_proj"
  type: "ReLU"
  bottom: "inception_4c/pool_proj"
  top: "inception_4c/pool_proj"
}
layer {
  name: "inception_4c/output"
  type: "Concat"
  bottom: "inception_4c/1x1"
  bottom: "inception_4c/3x3"
  bottom: "inception_4c/5x5"
  bottom: "inception_4c/pool_proj"
  top: "inception_4c/output"
}
layer {
  name: "inception_4d/1x1"
  type: "Convolution"
  bottom: "inception_4c/output"
  top: "inception_4d/1x1"
  param {
    lr_mult: 1
    decay_mult: 1
  }
  param {
    lr_mult: 2
    decay_mult: 0
  }
  convolution_param {
    num_output: 112
    kernel_size: 1
    weight_filler {
      type: "xavier"
      std: 0.03
    }
    bias_filler {
      type: "constant"
      value: 0.2
    }
  }
}
layer {
  name: "inception_4d/relu_1x1"
  type: "ReLU"
  bottom: "inception_4d/1x1"
  top: "inception_4d/1x1"
}
layer {
  name: "inception_4d/3x3_reduce"
  type: "Convolution"
  bottom: "inception_4c/output"
  top: "inception_4d/3x3_reduce"
  param {
    lr_mult: 1
    decay_mult: 1
  }
  param {
    lr_mult: 2
    decay_mult: 0
  }
  convolution_param {
    num_output: 144
    kernel_size: 1
    weight_filler {
      type: "xavier"
      std: 0.09
    }
    bias_filler {
      type: "constant"
      value: 0.2
    }
  }
}
layer {
  name: "inception_4d/relu_3x3_reduce"
  type: "ReLU"
  bottom: "inception_4d/3x3_reduce"
  top: "inception_4d/3x3_reduce"
}
layer {
  name: "inception_4d/3x3"
  type: "Convolution"
  bottom: "inception_4d/3x3_reduce"
  top: "inception_4d/3x3"
  param {
    lr_mult: 1
    decay_mult: 1
  }
  param {
    lr_mult: 2
    decay_mult: 0
  }
  convolution_param {
    num_output: 288
    pad: 1
    kernel_size: 3
    weight_filler {
      type: "xavier"
      std: 0.03
    }
    bias_filler {
      type: "constant"
      value: 0.2
    }
  }
}
layer {
  name: "inception_4d/relu_3x3"
  type: "ReLU"
  bottom: "inception_4d/3x3"
  top: "inception_4d/3x3"
}
layer {
  name: "inception_4d/5x5_reduce"
  type: "Convolution"
  bottom: "inception_4c/output"
  top: "inception_4d/5x5_reduce"
  param {
    lr_mult: 1
    decay_mult: 1
  }
  param {
    lr_mult: 2
    decay_mult: 0
  }
  convolution_param {
    num_output: 32
    kernel_size: 1
    weight_filler {
      type: "xavier"
      std: 0.2
    }
    bias_filler {
      type: "constant"
      value: 0.2
    }
  }
}
layer {
  name: "inception_4d/relu_5x5_reduce"
  type: "ReLU"
  bottom: "inception_4d/5x5_reduce"
  top: "inception_4d/5x5_reduce"
}
layer {
  name: "inception_4d/5x5"
  type: "Convolution"
  bottom: "inception_4d/5x5_reduce"
  top: "inception_4d/5x5"
  param {
    lr_mult: 1
    decay_mult: 1
  }
  param {
    lr_mult: 2
    decay_mult: 0
  }
  convolution_param {
    num_output: 64
    pad: 2
    kernel_size: 5
    weight_filler {
      type: "xavier"
      std: 0.03
    }
    bias_filler {
      type: "constant"
      value: 0.2
    }
  }
}
layer {
  name: "inception_4d/relu_5x5"
  type: "ReLU"
  bottom: "inception_4d/5x5"
  top: "inception_4d/5x5"
}
layer {
  name: "inception_4d/pool"
  type: "Pooling"
  bottom: "inception_4c/output"
  top: "inception_4d/pool"
  pooling_param {
    pool: MAX
    kernel_size: 3
    stride: 1
    pad: 1
  }
}
layer {
  name: "inception_4d/pool_proj"
  type: "Convolution"
  bottom: "inception_4d/pool"
  top: "inception_4d/pool_proj"
  param {
    lr_mult: 1
    decay_mult: 1
  }
  param {
    lr_mult: 2
    decay_mult: 0
  }
  convolution_param {
    num_output: 64
    kernel_size: 1
    weight_filler {
      type: "xavier"
      std: 0.1
    }
    bias_filler {
      type: "constant"
      value: 0.2
    }
  }
}
layer {
  name: "inception_4d/relu_pool_proj"
  type: "ReLU"
  bottom: "inception_4d/pool_proj"
  top: "inception_4d/pool_proj"
}
layer {
  name: "inception_4d/output"
  type: "Concat"
  bottom: "inception_4d/1x1"
  bottom: "inception_4d/3x3"
  bottom: "inception_4d/5x5"
  bottom: "inception_4d/pool_proj"
  top: "inception_4d/output"
}
layer {
  name: "inception_4e/1x1"
  type: "Convolution"
  bottom: "inception_4d/output"
  top: "inception_4e/1x1"
  param {
    lr_mult: 1
    decay_mult: 1
  }
  param {
    lr_mult: 2
    decay_mult: 0
  }
  convolution_param {
    num_output: 256
    kernel_size: 1
    weight_filler {
      type: "xavier"
      std: 0.03
    }
    bias_filler {
      type: "constant"
      value: 0.2
    }
  }
}
layer {
  name: "inception_4e/relu_1x1"
  type: "ReLU"
  bottom: "inception_4e/1x1"
  top: "inception_4e/1x1"
}
layer {
  name: "inception_4e/3x3_reduce"
  type: "Convolution"
  bottom: "inception_4d/output"
  top: "inception_4e/3x3_reduce"
  param {
    lr_mult: 1
    decay_mult: 1
  }
  param {
    lr_mult: 2
    decay_mult: 0
  }
  convolution_param {
    num_output: 160
    kernel_size: 1
    weight_filler {
      type: "xavier"
      std: 0.09
    }
    bias_filler {
      type: "constant"
      value: 0.2
    }
  }
}
layer {
  name: "inception_4e/relu_3x3_reduce"
  type: "ReLU"
  bottom: "inception_4e/3x3_reduce"
  top: "inception_4e/3x3_reduce"
}
layer {
  name: "inception_4e/3x3"
  type: "Convolution"
  bottom: "inception_4e/3x3_reduce"
  top: "inception_4e/3x3"
  param {
    lr_mult: 1
    decay_mult: 1
  }
  param {
    lr_mult: 2
    decay_mult: 0
  }
  convolution_param {
    num_output: 320
    pad: 1
    kernel_size: 3
    weight_filler {
      type: "xavier"
      std: 0.03
    }
    bias_filler {
      type: "constant"
      value: 0.2
    }
  }
}
layer {
  name: "inception_4e/relu_3x3"
  type: "ReLU"
  bottom: "inception_4e/3x3"
  top: "inception_4e/3x3"
}
layer {
  name: "inception_4e/5x5_reduce"
  type: "Convolution"
  bottom: "inception_4d/output"
  top: "inception_4e/5x5_reduce"
  param {
    lr_mult: 1
    decay_mult: 1
  }
  param {
    lr_mult: 2
    decay_mult: 0
  }
  convolution_param {
    num_output: 32
    kernel_size: 1
    weight_filler {
      type: "xavier"
      std: 0.2
    }
    bias_filler {
      type: "constant"
      value: 0.2
    }
  }
}
layer {
  name: "inception_4e/relu_5x5_reduce"
  type: "ReLU"
  bottom: "inception_4e/5x5_reduce"
  top: "inception_4e/5x5_reduce"
}
layer {
  name: "inception_4e/5x5"
  type: "Convolution"
  bottom: "inception_4e/5x5_reduce"
  top: "inception_4e/5x5"
  param {
    lr_mult: 1
    decay_mult: 1
  }
  param {
    lr_mult: 2
    decay_mult: 0
  }
  convolution_param {
    num_output: 128
    pad: 2
    kernel_size: 5
    weight_filler {
      type: "xavier"
      std: 0.03
    }
    bias_filler {
      type: "constant"
      value: 0.2
    }
  }
}
layer {
  name: "inception_4e/relu_5x5"
  type: "ReLU"
  bottom: "inception_4e/5x5"
  top: "inception_4e/5x5"
}
layer {
  name: "inception_4e/pool"
  type: "Pooling"
  bottom: "inception_4d/output"
  top: "inception_4e/pool"
  pooling_param {
    pool: MAX
    kernel_size: 3
    stride: 1
    pad: 1
  }
}
layer {
  name: "inception_4e/pool_proj"
  type: "Convolution"
  bottom: "inception_4e/pool"
  top: "inception_4e/pool_proj"
  param {
    lr_mult: 1
    decay_mult: 1
  }
  param {
    lr_mult: 2
    decay_mult: 0
  }
  convolution_param {
    num_output: 128
    kernel_size: 1
    weight_filler {
      type: "xavier"
      std: 0.1
    }
    bias_filler {
      type: "constant"
      value: 0.2
    }
  }
}
layer {
  name: "inception_4e/relu_pool_proj"
  type: "ReLU"
  bottom: "inception_4e/pool_proj"
  top: "inception_4e/pool_proj"
}
layer {
  name: "inception_4e/output"
  type: "Concat"
  bottom: "inception_4e/1x1"
  bottom: "inception_4e/3x3"
  bottom: "inception_4e/5x5"
  bottom: "inception_4e/pool_proj"
  top: "inception_4e/output"
}
layer {
  name: "output"
  type: "InnerProduct"
  bottom: "inception_4e/output"
  top: "output"
  param {
    lr_mult: 1
    decay_mult: 1
  }
  param {
    lr_mult: 2
    decay_mult: 0
  }
  inner_product_param {
    num_output: 63
    weight_filler {
      type: "xavier"
      std: 0.1
    }
    bias_filler {
      type: "constant"
      value: 0.2
    }
  }
}
layer {
  name: "loss"
  type: "SoftmaxWithLoss"
  bottom: "output"
  bottom: "label"
  top: "loss"
  loss_weight: 1
}
I0701 22:22:07.020632 18021 layer_factory.hpp:77] Creating layer data
I0701 22:22:07.021020 18021 net.cpp:100] Creating Layer data
I0701 22:22:07.021033 18021 net.cpp:408] data -> data
I0701 22:22:07.021051 18021 net.cpp:408] data -> label
I0701 22:22:07.022159 18030 db_lmdb.cpp:35] Opened lmdb ./build/icdar2013_sub_classifier
I0701 22:22:07.029738 18021 data_layer.cpp:41] output data size: 32,3,64,64
I0701 22:22:07.033520 18021 net.cpp:150] Setting up data
I0701 22:22:07.033555 18021 net.cpp:157] Top shape: 32 3 64 64 (393216)
I0701 22:22:07.033560 18021 net.cpp:157] Top shape: 32 (32)
I0701 22:22:07.033563 18021 net.cpp:165] Memory required for data: 1572992
I0701 22:22:07.033572 18021 layer_factory.hpp:77] Creating layer conv1/7x7_s2
I0701 22:22:07.033592 18021 net.cpp:100] Creating Layer conv1/7x7_s2
I0701 22:22:07.033598 18021 net.cpp:434] conv1/7x7_s2 <- data
I0701 22:22:07.033612 18021 net.cpp:408] conv1/7x7_s2 -> conv1/7x7_s2
I0701 22:22:07.034605 18021 net.cpp:150] Setting up conv1/7x7_s2
I0701 22:22:07.034620 18021 net.cpp:157] Top shape: 32 64 32 32 (2097152)
I0701 22:22:07.034623 18021 net.cpp:165] Memory required for data: 9961600
I0701 22:22:07.034636 18021 layer_factory.hpp:77] Creating layer conv1/relu_7x7
I0701 22:22:07.034646 18021 net.cpp:100] Creating Layer conv1/relu_7x7
I0701 22:22:07.034651 18021 net.cpp:434] conv1/relu_7x7 <- conv1/7x7_s2
I0701 22:22:07.034656 18021 net.cpp:395] conv1/relu_7x7 -> conv1/7x7_s2 (in-place)
I0701 22:22:07.034663 18021 net.cpp:150] Setting up conv1/relu_7x7
I0701 22:22:07.034668 18021 net.cpp:157] Top shape: 32 64 32 32 (2097152)
I0701 22:22:07.034672 18021 net.cpp:165] Memory required for data: 18350208
I0701 22:22:07.034675 18021 layer_factory.hpp:77] Creating layer pool1/3x3_s2
I0701 22:22:07.034682 18021 net.cpp:100] Creating Layer pool1/3x3_s2
I0701 22:22:07.034687 18021 net.cpp:434] pool1/3x3_s2 <- conv1/7x7_s2
I0701 22:22:07.034692 18021 net.cpp:408] pool1/3x3_s2 -> pool1/3x3_s2
I0701 22:22:07.034731 18021 net.cpp:150] Setting up pool1/3x3_s2
I0701 22:22:07.034737 18021 net.cpp:157] Top shape: 32 64 16 16 (524288)
I0701 22:22:07.034740 18021 net.cpp:165] Memory required for data: 20447360
I0701 22:22:07.034744 18021 layer_factory.hpp:77] Creating layer pool1/norm1
I0701 22:22:07.034752 18021 net.cpp:100] Creating Layer pool1/norm1
I0701 22:22:07.034756 18021 net.cpp:434] pool1/norm1 <- pool1/3x3_s2
I0701 22:22:07.034761 18021 net.cpp:408] pool1/norm1 -> pool1/norm1
I0701 22:22:07.034790 18021 net.cpp:150] Setting up pool1/norm1
I0701 22:22:07.034795 18021 net.cpp:157] Top shape: 32 64 16 16 (524288)
I0701 22:22:07.034799 18021 net.cpp:165] Memory required for data: 22544512
I0701 22:22:07.034802 18021 layer_factory.hpp:77] Creating layer conv2/3x3_reduce
I0701 22:22:07.034811 18021 net.cpp:100] Creating Layer conv2/3x3_reduce
I0701 22:22:07.034816 18021 net.cpp:434] conv2/3x3_reduce <- pool1/norm1
I0701 22:22:07.034822 18021 net.cpp:408] conv2/3x3_reduce -> conv2/3x3_reduce
I0701 22:22:07.035354 18021 net.cpp:150] Setting up conv2/3x3_reduce
I0701 22:22:07.035367 18021 net.cpp:157] Top shape: 32 64 16 16 (524288)
I0701 22:22:07.035370 18021 net.cpp:165] Memory required for data: 24641664
I0701 22:22:07.035377 18021 layer_factory.hpp:77] Creating layer conv2/relu_3x3_reduce
I0701 22:22:07.035385 18021 net.cpp:100] Creating Layer conv2/relu_3x3_reduce
I0701 22:22:07.035389 18021 net.cpp:434] conv2/relu_3x3_reduce <- conv2/3x3_reduce
I0701 22:22:07.035400 18021 net.cpp:395] conv2/relu_3x3_reduce -> conv2/3x3_reduce (in-place)
I0701 22:22:07.035414 18021 net.cpp:150] Setting up conv2/relu_3x3_reduce
I0701 22:22:07.035419 18021 net.cpp:157] Top shape: 32 64 16 16 (524288)
I0701 22:22:07.035423 18021 net.cpp:165] Memory required for data: 26738816
I0701 22:22:07.035426 18021 layer_factory.hpp:77] Creating layer conv2/3x3
I0701 22:22:07.035434 18021 net.cpp:100] Creating Layer conv2/3x3
I0701 22:22:07.035439 18021 net.cpp:434] conv2/3x3 <- conv2/3x3_reduce
I0701 22:22:07.035446 18021 net.cpp:408] conv2/3x3 -> conv2/3x3
I0701 22:22:07.036463 18021 net.cpp:150] Setting up conv2/3x3
I0701 22:22:07.036476 18021 net.cpp:157] Top shape: 32 192 16 16 (1572864)
I0701 22:22:07.036480 18021 net.cpp:165] Memory required for data: 33030272
I0701 22:22:07.036487 18021 layer_factory.hpp:77] Creating layer conv2/relu_3x3
I0701 22:22:07.036494 18021 net.cpp:100] Creating Layer conv2/relu_3x3
I0701 22:22:07.036499 18021 net.cpp:434] conv2/relu_3x3 <- conv2/3x3
I0701 22:22:07.036504 18021 net.cpp:395] conv2/relu_3x3 -> conv2/3x3 (in-place)
I0701 22:22:07.036510 18021 net.cpp:150] Setting up conv2/relu_3x3
I0701 22:22:07.036515 18021 net.cpp:157] Top shape: 32 192 16 16 (1572864)
I0701 22:22:07.036518 18021 net.cpp:165] Memory required for data: 39321728
I0701 22:22:07.036522 18021 layer_factory.hpp:77] Creating layer conv2/norm2
I0701 22:22:07.036559 18021 net.cpp:100] Creating Layer conv2/norm2
I0701 22:22:07.036563 18021 net.cpp:434] conv2/norm2 <- conv2/3x3
I0701 22:22:07.036571 18021 net.cpp:408] conv2/norm2 -> conv2/norm2
I0701 22:22:07.036615 18021 net.cpp:150] Setting up conv2/norm2
I0701 22:22:07.036622 18021 net.cpp:157] Top shape: 32 192 16 16 (1572864)
I0701 22:22:07.036624 18021 net.cpp:165] Memory required for data: 45613184
I0701 22:22:07.036628 18021 layer_factory.hpp:77] Creating layer pool2/3x3_s2
I0701 22:22:07.036634 18021 net.cpp:100] Creating Layer pool2/3x3_s2
I0701 22:22:07.036638 18021 net.cpp:434] pool2/3x3_s2 <- conv2/norm2
I0701 22:22:07.036643 18021 net.cpp:408] pool2/3x3_s2 -> pool2/3x3_s2
I0701 22:22:07.036669 18021 net.cpp:150] Setting up pool2/3x3_s2
I0701 22:22:07.036675 18021 net.cpp:157] Top shape: 32 192 8 8 (393216)
I0701 22:22:07.036679 18021 net.cpp:165] Memory required for data: 47186048
I0701 22:22:07.036682 18021 layer_factory.hpp:77] Creating layer pool2/3x3_s2_pool2/3x3_s2_0_split
I0701 22:22:07.036689 18021 net.cpp:100] Creating Layer pool2/3x3_s2_pool2/3x3_s2_0_split
I0701 22:22:07.036691 18021 net.cpp:434] pool2/3x3_s2_pool2/3x3_s2_0_split <- pool2/3x3_s2
I0701 22:22:07.036698 18021 net.cpp:408] pool2/3x3_s2_pool2/3x3_s2_0_split -> pool2/3x3_s2_pool2/3x3_s2_0_split_0
I0701 22:22:07.036705 18021 net.cpp:408] pool2/3x3_s2_pool2/3x3_s2_0_split -> pool2/3x3_s2_pool2/3x3_s2_0_split_1
I0701 22:22:07.036711 18021 net.cpp:408] pool2/3x3_s2_pool2/3x3_s2_0_split -> pool2/3x3_s2_pool2/3x3_s2_0_split_2
I0701 22:22:07.036716 18021 net.cpp:408] pool2/3x3_s2_pool2/3x3_s2_0_split -> pool2/3x3_s2_pool2/3x3_s2_0_split_3
I0701 22:22:07.036754 18021 net.cpp:150] Setting up pool2/3x3_s2_pool2/3x3_s2_0_split
I0701 22:22:07.036761 18021 net.cpp:157] Top shape: 32 192 8 8 (393216)
I0701 22:22:07.036764 18021 net.cpp:157] Top shape: 32 192 8 8 (393216)
I0701 22:22:07.036768 18021 net.cpp:157] Top shape: 32 192 8 8 (393216)
I0701 22:22:07.036772 18021 net.cpp:157] Top shape: 32 192 8 8 (393216)
I0701 22:22:07.036775 18021 net.cpp:165] Memory required for data: 53477504
I0701 22:22:07.036778 18021 layer_factory.hpp:77] Creating layer inception_3a/1x1
I0701 22:22:07.036787 18021 net.cpp:100] Creating Layer inception_3a/1x1
I0701 22:22:07.036790 18021 net.cpp:434] inception_3a/1x1 <- pool2/3x3_s2_pool2/3x3_s2_0_split_0
I0701 22:22:07.036798 18021 net.cpp:408] inception_3a/1x1 -> inception_3a/1x1
I0701 22:22:07.037004 18021 net.cpp:150] Setting up inception_3a/1x1
I0701 22:22:07.037011 18021 net.cpp:157] Top shape: 32 64 8 8 (131072)
I0701 22:22:07.037014 18021 net.cpp:165] Memory required for data: 54001792
I0701 22:22:07.037020 18021 layer_factory.hpp:77] Creating layer inception_3a/relu_1x1
I0701 22:22:07.037036 18021 net.cpp:100] Creating Layer inception_3a/relu_1x1
I0701 22:22:07.037040 18021 net.cpp:434] inception_3a/relu_1x1 <- inception_3a/1x1
I0701 22:22:07.037046 18021 net.cpp:395] inception_3a/relu_1x1 -> inception_3a/1x1 (in-place)
I0701 22:22:07.037051 18021 net.cpp:150] Setting up inception_3a/relu_1x1
I0701 22:22:07.037056 18021 net.cpp:157] Top shape: 32 64 8 8 (131072)
I0701 22:22:07.037060 18021 net.cpp:165] Memory required for data: 54526080
I0701 22:22:07.037063 18021 layer_factory.hpp:77] Creating layer inception_3a/3x3_reduce
I0701 22:22:07.037070 18021 net.cpp:100] Creating Layer inception_3a/3x3_reduce
I0701 22:22:07.037073 18021 net.cpp:434] inception_3a/3x3_reduce <- pool2/3x3_s2_pool2/3x3_s2_0_split_1
I0701 22:22:07.037081 18021 net.cpp:408] inception_3a/3x3_reduce -> inception_3a/3x3_reduce
I0701 22:22:07.037688 18021 net.cpp:150] Setting up inception_3a/3x3_reduce
I0701 22:22:07.037699 18021 net.cpp:157] Top shape: 32 96 8 8 (196608)
I0701 22:22:07.037703 18021 net.cpp:165] Memory required for data: 55312512
I0701 22:22:07.037712 18021 layer_factory.hpp:77] Creating layer inception_3a/relu_3x3_reduce
I0701 22:22:07.037719 18021 net.cpp:100] Creating Layer inception_3a/relu_3x3_reduce
I0701 22:22:07.037722 18021 net.cpp:434] inception_3a/relu_3x3_reduce <- inception_3a/3x3_reduce
I0701 22:22:07.037727 18021 net.cpp:395] inception_3a/relu_3x3_reduce -> inception_3a/3x3_reduce (in-place)
I0701 22:22:07.037734 18021 net.cpp:150] Setting up inception_3a/relu_3x3_reduce
I0701 22:22:07.037739 18021 net.cpp:157] Top shape: 32 96 8 8 (196608)
I0701 22:22:07.037742 18021 net.cpp:165] Memory required for data: 56098944
I0701 22:22:07.037745 18021 layer_factory.hpp:77] Creating layer inception_3a/3x3
I0701 22:22:07.037756 18021 net.cpp:100] Creating Layer inception_3a/3x3
I0701 22:22:07.037760 18021 net.cpp:434] inception_3a/3x3 <- inception_3a/3x3_reduce
I0701 22:22:07.037766 18021 net.cpp:408] inception_3a/3x3 -> inception_3a/3x3
I0701 22:22:07.038424 18021 net.cpp:150] Setting up inception_3a/3x3
I0701 22:22:07.038432 18021 net.cpp:157] Top shape: 32 128 8 8 (262144)
I0701 22:22:07.038435 18021 net.cpp:165] Memory required for data: 57147520
I0701 22:22:07.038441 18021 layer_factory.hpp:77] Creating layer inception_3a/relu_3x3
I0701 22:22:07.038446 18021 net.cpp:100] Creating Layer inception_3a/relu_3x3
I0701 22:22:07.038450 18021 net.cpp:434] inception_3a/relu_3x3 <- inception_3a/3x3
I0701 22:22:07.038455 18021 net.cpp:395] inception_3a/relu_3x3 -> inception_3a/3x3 (in-place)
I0701 22:22:07.038460 18021 net.cpp:150] Setting up inception_3a/relu_3x3
I0701 22:22:07.038465 18021 net.cpp:157] Top shape: 32 128 8 8 (262144)
I0701 22:22:07.038468 18021 net.cpp:165] Memory required for data: 58196096
I0701 22:22:07.038471 18021 layer_factory.hpp:77] Creating layer inception_3a/5x5_reduce
I0701 22:22:07.038480 18021 net.cpp:100] Creating Layer inception_3a/5x5_reduce
I0701 22:22:07.038483 18021 net.cpp:434] inception_3a/5x5_reduce <- pool2/3x3_s2_pool2/3x3_s2_0_split_2
I0701 22:22:07.038489 18021 net.cpp:408] inception_3a/5x5_reduce -> inception_3a/5x5_reduce
I0701 22:22:07.038661 18021 net.cpp:150] Setting up inception_3a/5x5_reduce
I0701 22:22:07.038671 18021 net.cpp:157] Top shape: 32 16 8 8 (32768)
I0701 22:22:07.038673 18021 net.cpp:165] Memory required for data: 58327168
I0701 22:22:07.038678 18021 layer_factory.hpp:77] Creating layer inception_3a/relu_5x5_reduce
I0701 22:22:07.038684 18021 net.cpp:100] Creating Layer inception_3a/relu_5x5_reduce
I0701 22:22:07.038687 18021 net.cpp:434] inception_3a/relu_5x5_reduce <- inception_3a/5x5_reduce
I0701 22:22:07.038692 18021 net.cpp:395] inception_3a/relu_5x5_reduce -> inception_3a/5x5_reduce (in-place)
I0701 22:22:07.038697 18021 net.cpp:150] Setting up inception_3a/relu_5x5_reduce
I0701 22:22:07.038702 18021 net.cpp:157] Top shape: 32 16 8 8 (32768)
I0701 22:22:07.038705 18021 net.cpp:165] Memory required for data: 58458240
I0701 22:22:07.038708 18021 layer_factory.hpp:77] Creating layer inception_3a/5x5
I0701 22:22:07.038720 18021 net.cpp:100] Creating Layer inception_3a/5x5
I0701 22:22:07.038728 18021 net.cpp:434] inception_3a/5x5 <- inception_3a/5x5_reduce
I0701 22:22:07.038736 18021 net.cpp:408] inception_3a/5x5 -> inception_3a/5x5
I0701 22:22:07.038946 18021 net.cpp:150] Setting up inception_3a/5x5
I0701 22:22:07.038954 18021 net.cpp:157] Top shape: 32 32 8 8 (65536)
I0701 22:22:07.038956 18021 net.cpp:165] Memory required for data: 58720384
I0701 22:22:07.038962 18021 layer_factory.hpp:77] Creating layer inception_3a/relu_5x5
I0701 22:22:07.038967 18021 net.cpp:100] Creating Layer inception_3a/relu_5x5
I0701 22:22:07.038971 18021 net.cpp:434] inception_3a/relu_5x5 <- inception_3a/5x5
I0701 22:22:07.038976 18021 net.cpp:395] inception_3a/relu_5x5 -> inception_3a/5x5 (in-place)
I0701 22:22:07.038982 18021 net.cpp:150] Setting up inception_3a/relu_5x5
I0701 22:22:07.038986 18021 net.cpp:157] Top shape: 32 32 8 8 (65536)
I0701 22:22:07.038990 18021 net.cpp:165] Memory required for data: 58982528
I0701 22:22:07.038993 18021 layer_factory.hpp:77] Creating layer inception_3a/pool
I0701 22:22:07.038998 18021 net.cpp:100] Creating Layer inception_3a/pool
I0701 22:22:07.039001 18021 net.cpp:434] inception_3a/pool <- pool2/3x3_s2_pool2/3x3_s2_0_split_3
I0701 22:22:07.039007 18021 net.cpp:408] inception_3a/pool -> inception_3a/pool
I0701 22:22:07.039036 18021 net.cpp:150] Setting up inception_3a/pool
I0701 22:22:07.039041 18021 net.cpp:157] Top shape: 32 192 8 8 (393216)
I0701 22:22:07.039043 18021 net.cpp:165] Memory required for data: 60555392
I0701 22:22:07.039047 18021 layer_factory.hpp:77] Creating layer inception_3a/pool_proj
I0701 22:22:07.039055 18021 net.cpp:100] Creating Layer inception_3a/pool_proj
I0701 22:22:07.039059 18021 net.cpp:434] inception_3a/pool_proj <- inception_3a/pool
I0701 22:22:07.039064 18021 net.cpp:408] inception_3a/pool_proj -> inception_3a/pool_proj
I0701 22:22:07.039243 18021 net.cpp:150] Setting up inception_3a/pool_proj
I0701 22:22:07.039250 18021 net.cpp:157] Top shape: 32 32 8 8 (65536)
I0701 22:22:07.039254 18021 net.cpp:165] Memory required for data: 60817536
I0701 22:22:07.039263 18021 layer_factory.hpp:77] Creating layer inception_3a/relu_pool_proj
I0701 22:22:07.039268 18021 net.cpp:100] Creating Layer inception_3a/relu_pool_proj
I0701 22:22:07.039273 18021 net.cpp:434] inception_3a/relu_pool_proj <- inception_3a/pool_proj
I0701 22:22:07.039278 18021 net.cpp:395] inception_3a/relu_pool_proj -> inception_3a/pool_proj (in-place)
I0701 22:22:07.039283 18021 net.cpp:150] Setting up inception_3a/relu_pool_proj
I0701 22:22:07.039288 18021 net.cpp:157] Top shape: 32 32 8 8 (65536)
I0701 22:22:07.039291 18021 net.cpp:165] Memory required for data: 61079680
I0701 22:22:07.039294 18021 layer_factory.hpp:77] Creating layer inception_3a/output
I0701 22:22:07.039299 18021 net.cpp:100] Creating Layer inception_3a/output
I0701 22:22:07.039304 18021 net.cpp:434] inception_3a/output <- inception_3a/1x1
I0701 22:22:07.039307 18021 net.cpp:434] inception_3a/output <- inception_3a/3x3
I0701 22:22:07.039311 18021 net.cpp:434] inception_3a/output <- inception_3a/5x5
I0701 22:22:07.039315 18021 net.cpp:434] inception_3a/output <- inception_3a/pool_proj
I0701 22:22:07.039320 18021 net.cpp:408] inception_3a/output -> inception_3a/output
I0701 22:22:07.039338 18021 net.cpp:150] Setting up inception_3a/output
I0701 22:22:07.039345 18021 net.cpp:157] Top shape: 32 256 8 8 (524288)
I0701 22:22:07.039347 18021 net.cpp:165] Memory required for data: 63176832
I0701 22:22:07.039350 18021 layer_factory.hpp:77] Creating layer inception_3a/output_inception_3a/output_0_split
I0701 22:22:07.039357 18021 net.cpp:100] Creating Layer inception_3a/output_inception_3a/output_0_split
I0701 22:22:07.039361 18021 net.cpp:434] inception_3a/output_inception_3a/output_0_split <- inception_3a/output
I0701 22:22:07.039367 18021 net.cpp:408] inception_3a/output_inception_3a/output_0_split -> inception_3a/output_inception_3a/output_0_split_0
I0701 22:22:07.039373 18021 net.cpp:408] inception_3a/output_inception_3a/output_0_split -> inception_3a/output_inception_3a/output_0_split_1
I0701 22:22:07.039387 18021 net.cpp:408] inception_3a/output_inception_3a/output_0_split -> inception_3a/output_inception_3a/output_0_split_2
I0701 22:22:07.039393 18021 net.cpp:408] inception_3a/output_inception_3a/output_0_split -> inception_3a/output_inception_3a/output_0_split_3
I0701 22:22:07.039434 18021 net.cpp:150] Setting up inception_3a/output_inception_3a/output_0_split
I0701 22:22:07.039439 18021 net.cpp:157] Top shape: 32 256 8 8 (524288)
I0701 22:22:07.039443 18021 net.cpp:157] Top shape: 32 256 8 8 (524288)
I0701 22:22:07.039448 18021 net.cpp:157] Top shape: 32 256 8 8 (524288)
I0701 22:22:07.039451 18021 net.cpp:157] Top shape: 32 256 8 8 (524288)
I0701 22:22:07.039454 18021 net.cpp:165] Memory required for data: 71565440
I0701 22:22:07.039458 18021 layer_factory.hpp:77] Creating layer inception_3b/1x1
I0701 22:22:07.039465 18021 net.cpp:100] Creating Layer inception_3b/1x1
I0701 22:22:07.039469 18021 net.cpp:434] inception_3b/1x1 <- inception_3a/output_inception_3a/output_0_split_0
I0701 22:22:07.039476 18021 net.cpp:408] inception_3b/1x1 -> inception_3b/1x1
I0701 22:22:07.039772 18021 net.cpp:150] Setting up inception_3b/1x1
I0701 22:22:07.039779 18021 net.cpp:157] Top shape: 32 128 8 8 (262144)
I0701 22:22:07.039783 18021 net.cpp:165] Memory required for data: 72614016
I0701 22:22:07.039788 18021 layer_factory.hpp:77] Creating layer inception_3b/relu_1x1
I0701 22:22:07.039794 18021 net.cpp:100] Creating Layer inception_3b/relu_1x1
I0701 22:22:07.039798 18021 net.cpp:434] inception_3b/relu_1x1 <- inception_3b/1x1
I0701 22:22:07.039803 18021 net.cpp:395] inception_3b/relu_1x1 -> inception_3b/1x1 (in-place)
I0701 22:22:07.039808 18021 net.cpp:150] Setting up inception_3b/relu_1x1
I0701 22:22:07.039814 18021 net.cpp:157] Top shape: 32 128 8 8 (262144)
I0701 22:22:07.039818 18021 net.cpp:165] Memory required for data: 73662592
I0701 22:22:07.039820 18021 layer_factory.hpp:77] Creating layer inception_3b/3x3_reduce
I0701 22:22:07.039827 18021 net.cpp:100] Creating Layer inception_3b/3x3_reduce
I0701 22:22:07.039830 18021 net.cpp:434] inception_3b/3x3_reduce <- inception_3a/output_inception_3a/output_0_split_1
I0701 22:22:07.039837 18021 net.cpp:408] inception_3b/3x3_reduce -> inception_3b/3x3_reduce
I0701 22:22:07.040135 18021 net.cpp:150] Setting up inception_3b/3x3_reduce
I0701 22:22:07.040143 18021 net.cpp:157] Top shape: 32 128 8 8 (262144)
I0701 22:22:07.040146 18021 net.cpp:165] Memory required for data: 74711168
I0701 22:22:07.040151 18021 layer_factory.hpp:77] Creating layer inception_3b/relu_3x3_reduce
I0701 22:22:07.040156 18021 net.cpp:100] Creating Layer inception_3b/relu_3x3_reduce
I0701 22:22:07.040160 18021 net.cpp:434] inception_3b/relu_3x3_reduce <- inception_3b/3x3_reduce
I0701 22:22:07.040166 18021 net.cpp:395] inception_3b/relu_3x3_reduce -> inception_3b/3x3_reduce (in-place)
I0701 22:22:07.040171 18021 net.cpp:150] Setting up inception_3b/relu_3x3_reduce
I0701 22:22:07.040175 18021 net.cpp:157] Top shape: 32 128 8 8 (262144)
I0701 22:22:07.040179 18021 net.cpp:165] Memory required for data: 75759744
I0701 22:22:07.040182 18021 layer_factory.hpp:77] Creating layer inception_3b/3x3
I0701 22:22:07.040190 18021 net.cpp:100] Creating Layer inception_3b/3x3
I0701 22:22:07.040194 18021 net.cpp:434] inception_3b/3x3 <- inception_3b/3x3_reduce
I0701 22:22:07.040199 18021 net.cpp:408] inception_3b/3x3 -> inception_3b/3x3
I0701 22:22:07.041792 18021 net.cpp:150] Setting up inception_3b/3x3
I0701 22:22:07.041806 18021 net.cpp:157] Top shape: 32 192 8 8 (393216)
I0701 22:22:07.041810 18021 net.cpp:165] Memory required for data: 77332608
I0701 22:22:07.041816 18021 layer_factory.hpp:77] Creating layer inception_3b/relu_3x3
I0701 22:22:07.041828 18021 net.cpp:100] Creating Layer inception_3b/relu_3x3
I0701 22:22:07.041833 18021 net.cpp:434] inception_3b/relu_3x3 <- inception_3b/3x3
I0701 22:22:07.041838 18021 net.cpp:395] inception_3b/relu_3x3 -> inception_3b/3x3 (in-place)
I0701 22:22:07.041844 18021 net.cpp:150] Setting up inception_3b/relu_3x3
I0701 22:22:07.041853 18021 net.cpp:157] Top shape: 32 192 8 8 (393216)
I0701 22:22:07.041862 18021 net.cpp:165] Memory required for data: 78905472
I0701 22:22:07.041867 18021 layer_factory.hpp:77] Creating layer inception_3b/5x5_reduce
I0701 22:22:07.041874 18021 net.cpp:100] Creating Layer inception_3b/5x5_reduce
I0701 22:22:07.041878 18021 net.cpp:434] inception_3b/5x5_reduce <- inception_3a/output_inception_3a/output_0_split_2
I0701 22:22:07.041885 18021 net.cpp:408] inception_3b/5x5_reduce -> inception_3b/5x5_reduce
I0701 22:22:07.042083 18021 net.cpp:150] Setting up inception_3b/5x5_reduce
I0701 22:22:07.042090 18021 net.cpp:157] Top shape: 32 32 8 8 (65536)
I0701 22:22:07.042093 18021 net.cpp:165] Memory required for data: 79167616
I0701 22:22:07.042099 18021 layer_factory.hpp:77] Creating layer inception_3b/relu_5x5_reduce
I0701 22:22:07.042104 18021 net.cpp:100] Creating Layer inception_3b/relu_5x5_reduce
I0701 22:22:07.042107 18021 net.cpp:434] inception_3b/relu_5x5_reduce <- inception_3b/5x5_reduce
I0701 22:22:07.042114 18021 net.cpp:395] inception_3b/relu_5x5_reduce -> inception_3b/5x5_reduce (in-place)
I0701 22:22:07.042119 18021 net.cpp:150] Setting up inception_3b/relu_5x5_reduce
I0701 22:22:07.042124 18021 net.cpp:157] Top shape: 32 32 8 8 (65536)
I0701 22:22:07.042127 18021 net.cpp:165] Memory required for data: 79429760
I0701 22:22:07.042130 18021 layer_factory.hpp:77] Creating layer inception_3b/5x5
I0701 22:22:07.042140 18021 net.cpp:100] Creating Layer inception_3b/5x5
I0701 22:22:07.042142 18021 net.cpp:434] inception_3b/5x5 <- inception_3b/5x5_reduce
I0701 22:22:07.042148 18021 net.cpp:408] inception_3b/5x5 -> inception_3b/5x5
I0701 22:22:07.043027 18021 net.cpp:150] Setting up inception_3b/5x5
I0701 22:22:07.043040 18021 net.cpp:157] Top shape: 32 96 8 8 (196608)
I0701 22:22:07.043045 18021 net.cpp:165] Memory required for data: 80216192
I0701 22:22:07.043051 18021 layer_factory.hpp:77] Creating layer inception_3b/relu_5x5
I0701 22:22:07.043056 18021 net.cpp:100] Creating Layer inception_3b/relu_5x5
I0701 22:22:07.043059 18021 net.cpp:434] inception_3b/relu_5x5 <- inception_3b/5x5
I0701 22:22:07.043064 18021 net.cpp:395] inception_3b/relu_5x5 -> inception_3b/5x5 (in-place)
I0701 22:22:07.043071 18021 net.cpp:150] Setting up inception_3b/relu_5x5
I0701 22:22:07.043076 18021 net.cpp:157] Top shape: 32 96 8 8 (196608)
I0701 22:22:07.043078 18021 net.cpp:165] Memory required for data: 81002624
I0701 22:22:07.043082 18021 layer_factory.hpp:77] Creating layer inception_3b/pool
I0701 22:22:07.043089 18021 net.cpp:100] Creating Layer inception_3b/pool
I0701 22:22:07.043092 18021 net.cpp:434] inception_3b/pool <- inception_3a/output_inception_3a/output_0_split_3
I0701 22:22:07.043097 18021 net.cpp:408] inception_3b/pool -> inception_3b/pool
I0701 22:22:07.043128 18021 net.cpp:150] Setting up inception_3b/pool
I0701 22:22:07.043133 18021 net.cpp:157] Top shape: 32 256 8 8 (524288)
I0701 22:22:07.043138 18021 net.cpp:165] Memory required for data: 83099776
I0701 22:22:07.043140 18021 layer_factory.hpp:77] Creating layer inception_3b/pool_proj
I0701 22:22:07.043148 18021 net.cpp:100] Creating Layer inception_3b/pool_proj
I0701 22:22:07.043153 18021 net.cpp:434] inception_3b/pool_proj <- inception_3b/pool
I0701 22:22:07.043159 18021 net.cpp:408] inception_3b/pool_proj -> inception_3b/pool_proj
I0701 22:22:07.043385 18021 net.cpp:150] Setting up inception_3b/pool_proj
I0701 22:22:07.043392 18021 net.cpp:157] Top shape: 32 64 8 8 (131072)
I0701 22:22:07.043395 18021 net.cpp:165] Memory required for data: 83624064
I0701 22:22:07.043401 18021 layer_factory.hpp:77] Creating layer inception_3b/relu_pool_proj
I0701 22:22:07.043406 18021 net.cpp:100] Creating Layer inception_3b/relu_pool_proj
I0701 22:22:07.043409 18021 net.cpp:434] inception_3b/relu_pool_proj <- inception_3b/pool_proj
I0701 22:22:07.043416 18021 net.cpp:395] inception_3b/relu_pool_proj -> inception_3b/pool_proj (in-place)
I0701 22:22:07.043421 18021 net.cpp:150] Setting up inception_3b/relu_pool_proj
I0701 22:22:07.043426 18021 net.cpp:157] Top shape: 32 64 8 8 (131072)
I0701 22:22:07.043437 18021 net.cpp:165] Memory required for data: 84148352
I0701 22:22:07.043444 18021 layer_factory.hpp:77] Creating layer inception_3b/output
I0701 22:22:07.043450 18021 net.cpp:100] Creating Layer inception_3b/output
I0701 22:22:07.043454 18021 net.cpp:434] inception_3b/output <- inception_3b/1x1
I0701 22:22:07.043458 18021 net.cpp:434] inception_3b/output <- inception_3b/3x3
I0701 22:22:07.043462 18021 net.cpp:434] inception_3b/output <- inception_3b/5x5
I0701 22:22:07.043467 18021 net.cpp:434] inception_3b/output <- inception_3b/pool_proj
I0701 22:22:07.043473 18021 net.cpp:408] inception_3b/output -> inception_3b/output
I0701 22:22:07.043498 18021 net.cpp:150] Setting up inception_3b/output
I0701 22:22:07.043503 18021 net.cpp:157] Top shape: 32 480 8 8 (983040)
I0701 22:22:07.043506 18021 net.cpp:165] Memory required for data: 88080512
I0701 22:22:07.043510 18021 layer_factory.hpp:77] Creating layer pool3/3x3_s2
I0701 22:22:07.043515 18021 net.cpp:100] Creating Layer pool3/3x3_s2
I0701 22:22:07.043519 18021 net.cpp:434] pool3/3x3_s2 <- inception_3b/output
I0701 22:22:07.043524 18021 net.cpp:408] pool3/3x3_s2 -> pool3/3x3_s2
I0701 22:22:07.043550 18021 net.cpp:150] Setting up pool3/3x3_s2
I0701 22:22:07.043555 18021 net.cpp:157] Top shape: 32 480 4 4 (245760)
I0701 22:22:07.043560 18021 net.cpp:165] Memory required for data: 89063552
I0701 22:22:07.043562 18021 layer_factory.hpp:77] Creating layer pool3/3x3_s2_pool3/3x3_s2_0_split
I0701 22:22:07.043567 18021 net.cpp:100] Creating Layer pool3/3x3_s2_pool3/3x3_s2_0_split
I0701 22:22:07.043571 18021 net.cpp:434] pool3/3x3_s2_pool3/3x3_s2_0_split <- pool3/3x3_s2
I0701 22:22:07.043577 18021 net.cpp:408] pool3/3x3_s2_pool3/3x3_s2_0_split -> pool3/3x3_s2_pool3/3x3_s2_0_split_0
I0701 22:22:07.043584 18021 net.cpp:408] pool3/3x3_s2_pool3/3x3_s2_0_split -> pool3/3x3_s2_pool3/3x3_s2_0_split_1
I0701 22:22:07.043591 18021 net.cpp:408] pool3/3x3_s2_pool3/3x3_s2_0_split -> pool3/3x3_s2_pool3/3x3_s2_0_split_2
I0701 22:22:07.043596 18021 net.cpp:408] pool3/3x3_s2_pool3/3x3_s2_0_split -> pool3/3x3_s2_pool3/3x3_s2_0_split_3
I0701 22:22:07.043633 18021 net.cpp:150] Setting up pool3/3x3_s2_pool3/3x3_s2_0_split
I0701 22:22:07.043639 18021 net.cpp:157] Top shape: 32 480 4 4 (245760)
I0701 22:22:07.043643 18021 net.cpp:157] Top shape: 32 480 4 4 (245760)
I0701 22:22:07.043648 18021 net.cpp:157] Top shape: 32 480 4 4 (245760)
I0701 22:22:07.043651 18021 net.cpp:157] Top shape: 32 480 4 4 (245760)
I0701 22:22:07.043654 18021 net.cpp:165] Memory required for data: 92995712
I0701 22:22:07.043658 18021 layer_factory.hpp:77] Creating layer inception_4a/1x1
I0701 22:22:07.043665 18021 net.cpp:100] Creating Layer inception_4a/1x1
I0701 22:22:07.043669 18021 net.cpp:434] inception_4a/1x1 <- pool3/3x3_s2_pool3/3x3_s2_0_split_0
I0701 22:22:07.043675 18021 net.cpp:408] inception_4a/1x1 -> inception_4a/1x1
I0701 22:22:07.044257 18021 net.cpp:150] Setting up inception_4a/1x1
I0701 22:22:07.044265 18021 net.cpp:157] Top shape: 32 192 4 4 (98304)
I0701 22:22:07.044267 18021 net.cpp:165] Memory required for data: 93388928
I0701 22:22:07.044273 18021 layer_factory.hpp:77] Creating layer inception_4a/relu_1x1
I0701 22:22:07.044279 18021 net.cpp:100] Creating Layer inception_4a/relu_1x1
I0701 22:22:07.044283 18021 net.cpp:434] inception_4a/relu_1x1 <- inception_4a/1x1
I0701 22:22:07.044287 18021 net.cpp:395] inception_4a/relu_1x1 -> inception_4a/1x1 (in-place)
I0701 22:22:07.044293 18021 net.cpp:150] Setting up inception_4a/relu_1x1
I0701 22:22:07.044297 18021 net.cpp:157] Top shape: 32 192 4 4 (98304)
I0701 22:22:07.044301 18021 net.cpp:165] Memory required for data: 93782144
I0701 22:22:07.044304 18021 layer_factory.hpp:77] Creating layer inception_4a/3x3_reduce
I0701 22:22:07.044312 18021 net.cpp:100] Creating Layer inception_4a/3x3_reduce
I0701 22:22:07.044315 18021 net.cpp:434] inception_4a/3x3_reduce <- pool3/3x3_s2_pool3/3x3_s2_0_split_1
I0701 22:22:07.044322 18021 net.cpp:408] inception_4a/3x3_reduce -> inception_4a/3x3_reduce
I0701 22:22:07.046950 18021 net.cpp:150] Setting up inception_4a/3x3_reduce
I0701 22:22:07.046983 18021 net.cpp:157] Top shape: 32 96 4 4 (49152)
I0701 22:22:07.046988 18021 net.cpp:165] Memory required for data: 93978752
I0701 22:22:07.047000 18021 layer_factory.hpp:77] Creating layer inception_4a/relu_3x3_reduce
I0701 22:22:07.047008 18021 net.cpp:100] Creating Layer inception_4a/relu_3x3_reduce
I0701 22:22:07.047013 18021 net.cpp:434] inception_4a/relu_3x3_reduce <- inception_4a/3x3_reduce
I0701 22:22:07.047019 18021 net.cpp:395] inception_4a/relu_3x3_reduce -> inception_4a/3x3_reduce (in-place)
I0701 22:22:07.047026 18021 net.cpp:150] Setting up inception_4a/relu_3x3_reduce
I0701 22:22:07.047030 18021 net.cpp:157] Top shape: 32 96 4 4 (49152)
I0701 22:22:07.047034 18021 net.cpp:165] Memory required for data: 94175360
I0701 22:22:07.047037 18021 layer_factory.hpp:77] Creating layer inception_4a/3x3
I0701 22:22:07.047045 18021 net.cpp:100] Creating Layer inception_4a/3x3
I0701 22:22:07.047049 18021 net.cpp:434] inception_4a/3x3 <- inception_4a/3x3_reduce
I0701 22:22:07.047056 18021 net.cpp:408] inception_4a/3x3 -> inception_4a/3x3
I0701 22:22:07.048478 18021 net.cpp:150] Setting up inception_4a/3x3
I0701 22:22:07.048491 18021 net.cpp:157] Top shape: 32 208 4 4 (106496)
I0701 22:22:07.048496 18021 net.cpp:165] Memory required for data: 94601344
I0701 22:22:07.048501 18021 layer_factory.hpp:77] Creating layer inception_4a/relu_3x3
I0701 22:22:07.048507 18021 net.cpp:100] Creating Layer inception_4a/relu_3x3
I0701 22:22:07.048511 18021 net.cpp:434] inception_4a/relu_3x3 <- inception_4a/3x3
I0701 22:22:07.048517 18021 net.cpp:395] inception_4a/relu_3x3 -> inception_4a/3x3 (in-place)
I0701 22:22:07.048547 18021 net.cpp:150] Setting up inception_4a/relu_3x3
I0701 22:22:07.048564 18021 net.cpp:157] Top shape: 32 208 4 4 (106496)
I0701 22:22:07.048568 18021 net.cpp:165] Memory required for data: 95027328
I0701 22:22:07.048571 18021 layer_factory.hpp:77] Creating layer inception_4a/5x5_reduce
I0701 22:22:07.048581 18021 net.cpp:100] Creating Layer inception_4a/5x5_reduce
I0701 22:22:07.048585 18021 net.cpp:434] inception_4a/5x5_reduce <- pool3/3x3_s2_pool3/3x3_s2_0_split_2
I0701 22:22:07.048600 18021 net.cpp:408] inception_4a/5x5_reduce -> inception_4a/5x5_reduce
I0701 22:22:07.048811 18021 net.cpp:150] Setting up inception_4a/5x5_reduce
I0701 22:22:07.048820 18021 net.cpp:157] Top shape: 32 16 4 4 (8192)
I0701 22:22:07.048823 18021 net.cpp:165] Memory required for data: 95060096
I0701 22:22:07.048830 18021 layer_factory.hpp:77] Creating layer inception_4a/relu_5x5_reduce
I0701 22:22:07.048835 18021 net.cpp:100] Creating Layer inception_4a/relu_5x5_reduce
I0701 22:22:07.048838 18021 net.cpp:434] inception_4a/relu_5x5_reduce <- inception_4a/5x5_reduce
I0701 22:22:07.048843 18021 net.cpp:395] inception_4a/relu_5x5_reduce -> inception_4a/5x5_reduce (in-place)
I0701 22:22:07.048848 18021 net.cpp:150] Setting up inception_4a/relu_5x5_reduce
I0701 22:22:07.048853 18021 net.cpp:157] Top shape: 32 16 4 4 (8192)
I0701 22:22:07.048856 18021 net.cpp:165] Memory required for data: 95092864
I0701 22:22:07.048859 18021 layer_factory.hpp:77] Creating layer inception_4a/5x5
I0701 22:22:07.048867 18021 net.cpp:100] Creating Layer inception_4a/5x5
I0701 22:22:07.048871 18021 net.cpp:434] inception_4a/5x5 <- inception_4a/5x5_reduce
I0701 22:22:07.048877 18021 net.cpp:408] inception_4a/5x5 -> inception_4a/5x5
I0701 22:22:07.049131 18021 net.cpp:150] Setting up inception_4a/5x5
I0701 22:22:07.049139 18021 net.cpp:157] Top shape: 32 48 4 4 (24576)
I0701 22:22:07.049142 18021 net.cpp:165] Memory required for data: 95191168
I0701 22:22:07.049149 18021 layer_factory.hpp:77] Creating layer inception_4a/relu_5x5
I0701 22:22:07.049154 18021 net.cpp:100] Creating Layer inception_4a/relu_5x5
I0701 22:22:07.049156 18021 net.cpp:434] inception_4a/relu_5x5 <- inception_4a/5x5
I0701 22:22:07.049162 18021 net.cpp:395] inception_4a/relu_5x5 -> inception_4a/5x5 (in-place)
I0701 22:22:07.049168 18021 net.cpp:150] Setting up inception_4a/relu_5x5
I0701 22:22:07.049172 18021 net.cpp:157] Top shape: 32 48 4 4 (24576)
I0701 22:22:07.049180 18021 net.cpp:165] Memory required for data: 95289472
I0701 22:22:07.049190 18021 layer_factory.hpp:77] Creating layer inception_4a/pool
I0701 22:22:07.049196 18021 net.cpp:100] Creating Layer inception_4a/pool
I0701 22:22:07.049199 18021 net.cpp:434] inception_4a/pool <- pool3/3x3_s2_pool3/3x3_s2_0_split_3
I0701 22:22:07.049206 18021 net.cpp:408] inception_4a/pool -> inception_4a/pool
I0701 22:22:07.049237 18021 net.cpp:150] Setting up inception_4a/pool
I0701 22:22:07.049242 18021 net.cpp:157] Top shape: 32 480 4 4 (245760)
I0701 22:22:07.049247 18021 net.cpp:165] Memory required for data: 96272512
I0701 22:22:07.049249 18021 layer_factory.hpp:77] Creating layer inception_4a/pool_proj
I0701 22:22:07.049258 18021 net.cpp:100] Creating Layer inception_4a/pool_proj
I0701 22:22:07.049263 18021 net.cpp:434] inception_4a/pool_proj <- inception_4a/pool
I0701 22:22:07.049268 18021 net.cpp:408] inception_4a/pool_proj -> inception_4a/pool_proj
I0701 22:22:07.049571 18021 net.cpp:150] Setting up inception_4a/pool_proj
I0701 22:22:07.049579 18021 net.cpp:157] Top shape: 32 64 4 4 (32768)
I0701 22:22:07.049582 18021 net.cpp:165] Memory required for data: 96403584
I0701 22:22:07.049587 18021 layer_factory.hpp:77] Creating layer inception_4a/relu_pool_proj
I0701 22:22:07.049592 18021 net.cpp:100] Creating Layer inception_4a/relu_pool_proj
I0701 22:22:07.049597 18021 net.cpp:434] inception_4a/relu_pool_proj <- inception_4a/pool_proj
I0701 22:22:07.049602 18021 net.cpp:395] inception_4a/relu_pool_proj -> inception_4a/pool_proj (in-place)
I0701 22:22:07.049607 18021 net.cpp:150] Setting up inception_4a/relu_pool_proj
I0701 22:22:07.049612 18021 net.cpp:157] Top shape: 32 64 4 4 (32768)
I0701 22:22:07.049614 18021 net.cpp:165] Memory required for data: 96534656
I0701 22:22:07.049618 18021 layer_factory.hpp:77] Creating layer inception_4a/output
I0701 22:22:07.049624 18021 net.cpp:100] Creating Layer inception_4a/output
I0701 22:22:07.049628 18021 net.cpp:434] inception_4a/output <- inception_4a/1x1
I0701 22:22:07.049633 18021 net.cpp:434] inception_4a/output <- inception_4a/3x3
I0701 22:22:07.049636 18021 net.cpp:434] inception_4a/output <- inception_4a/5x5
I0701 22:22:07.049640 18021 net.cpp:434] inception_4a/output <- inception_4a/pool_proj
I0701 22:22:07.049644 18021 net.cpp:408] inception_4a/output -> inception_4a/output
I0701 22:22:07.049664 18021 net.cpp:150] Setting up inception_4a/output
I0701 22:22:07.049669 18021 net.cpp:157] Top shape: 32 512 4 4 (262144)
I0701 22:22:07.049672 18021 net.cpp:165] Memory required for data: 97583232
I0701 22:22:07.049675 18021 layer_factory.hpp:77] Creating layer inception_4a/output_inception_4a/output_0_split
I0701 22:22:07.049681 18021 net.cpp:100] Creating Layer inception_4a/output_inception_4a/output_0_split
I0701 22:22:07.049685 18021 net.cpp:434] inception_4a/output_inception_4a/output_0_split <- inception_4a/output
I0701 22:22:07.049691 18021 net.cpp:408] inception_4a/output_inception_4a/output_0_split -> inception_4a/output_inception_4a/output_0_split_0
I0701 22:22:07.049700 18021 net.cpp:408] inception_4a/output_inception_4a/output_0_split -> inception_4a/output_inception_4a/output_0_split_1
I0701 22:22:07.049705 18021 net.cpp:408] inception_4a/output_inception_4a/output_0_split -> inception_4a/output_inception_4a/output_0_split_2
I0701 22:22:07.049710 18021 net.cpp:408] inception_4a/output_inception_4a/output_0_split -> inception_4a/output_inception_4a/output_0_split_3
I0701 22:22:07.049751 18021 net.cpp:150] Setting up inception_4a/output_inception_4a/output_0_split
I0701 22:22:07.049758 18021 net.cpp:157] Top shape: 32 512 4 4 (262144)
I0701 22:22:07.049762 18021 net.cpp:157] Top shape: 32 512 4 4 (262144)
I0701 22:22:07.049767 18021 net.cpp:157] Top shape: 32 512 4 4 (262144)
I0701 22:22:07.049770 18021 net.cpp:157] Top shape: 32 512 4 4 (262144)
I0701 22:22:07.049773 18021 net.cpp:165] Memory required for data: 101777536
I0701 22:22:07.049777 18021 layer_factory.hpp:77] Creating layer inception_4b/1x1
I0701 22:22:07.049784 18021 net.cpp:100] Creating Layer inception_4b/1x1
I0701 22:22:07.049794 18021 net.cpp:434] inception_4b/1x1 <- inception_4a/output_inception_4a/output_0_split_0
I0701 22:22:07.049800 18021 net.cpp:408] inception_4b/1x1 -> inception_4b/1x1
I0701 22:22:07.050336 18021 net.cpp:150] Setting up inception_4b/1x1
I0701 22:22:07.050343 18021 net.cpp:157] Top shape: 32 160 4 4 (81920)
I0701 22:22:07.050348 18021 net.cpp:165] Memory required for data: 102105216
I0701 22:22:07.050352 18021 layer_factory.hpp:77] Creating layer inception_4b/relu_1x1
I0701 22:22:07.050359 18021 net.cpp:100] Creating Layer inception_4b/relu_1x1
I0701 22:22:07.050362 18021 net.cpp:434] inception_4b/relu_1x1 <- inception_4b/1x1
I0701 22:22:07.050367 18021 net.cpp:395] inception_4b/relu_1x1 -> inception_4b/1x1 (in-place)
I0701 22:22:07.050372 18021 net.cpp:150] Setting up inception_4b/relu_1x1
I0701 22:22:07.050376 18021 net.cpp:157] Top shape: 32 160 4 4 (81920)
I0701 22:22:07.050380 18021 net.cpp:165] Memory required for data: 102432896
I0701 22:22:07.050384 18021 layer_factory.hpp:77] Creating layer inception_4b/3x3_reduce
I0701 22:22:07.050391 18021 net.cpp:100] Creating Layer inception_4b/3x3_reduce
I0701 22:22:07.050395 18021 net.cpp:434] inception_4b/3x3_reduce <- inception_4a/output_inception_4a/output_0_split_1
I0701 22:22:07.050401 18021 net.cpp:408] inception_4b/3x3_reduce -> inception_4b/3x3_reduce
I0701 22:22:07.050827 18021 net.cpp:150] Setting up inception_4b/3x3_reduce
I0701 22:22:07.050834 18021 net.cpp:157] Top shape: 32 112 4 4 (57344)
I0701 22:22:07.050837 18021 net.cpp:165] Memory required for data: 102662272
I0701 22:22:07.050843 18021 layer_factory.hpp:77] Creating layer inception_4b/relu_3x3_reduce
I0701 22:22:07.050848 18021 net.cpp:100] Creating Layer inception_4b/relu_3x3_reduce
I0701 22:22:07.050851 18021 net.cpp:434] inception_4b/relu_3x3_reduce <- inception_4b/3x3_reduce
I0701 22:22:07.050858 18021 net.cpp:395] inception_4b/relu_3x3_reduce -> inception_4b/3x3_reduce (in-place)
I0701 22:22:07.050863 18021 net.cpp:150] Setting up inception_4b/relu_3x3_reduce
I0701 22:22:07.050868 18021 net.cpp:157] Top shape: 32 112 4 4 (57344)
I0701 22:22:07.050871 18021 net.cpp:165] Memory required for data: 102891648
I0701 22:22:07.050874 18021 layer_factory.hpp:77] Creating layer inception_4b/3x3
I0701 22:22:07.050881 18021 net.cpp:100] Creating Layer inception_4b/3x3
I0701 22:22:07.050885 18021 net.cpp:434] inception_4b/3x3 <- inception_4b/3x3_reduce
I0701 22:22:07.050890 18021 net.cpp:408] inception_4b/3x3 -> inception_4b/3x3
I0701 22:22:07.052523 18021 net.cpp:150] Setting up inception_4b/3x3
I0701 22:22:07.052572 18021 net.cpp:157] Top shape: 32 224 4 4 (114688)
I0701 22:22:07.052577 18021 net.cpp:165] Memory required for data: 103350400
I0701 22:22:07.052597 18021 layer_factory.hpp:77] Creating layer inception_4b/relu_3x3
I0701 22:22:07.052613 18021 net.cpp:100] Creating Layer inception_4b/relu_3x3
I0701 22:22:07.052618 18021 net.cpp:434] inception_4b/relu_3x3 <- inception_4b/3x3
I0701 22:22:07.052623 18021 net.cpp:395] inception_4b/relu_3x3 -> inception_4b/3x3 (in-place)
I0701 22:22:07.052630 18021 net.cpp:150] Setting up inception_4b/relu_3x3
I0701 22:22:07.052635 18021 net.cpp:157] Top shape: 32 224 4 4 (114688)
I0701 22:22:07.052639 18021 net.cpp:165] Memory required for data: 103809152
I0701 22:22:07.052641 18021 layer_factory.hpp:77] Creating layer inception_4b/5x5_reduce
I0701 22:22:07.052661 18021 net.cpp:100] Creating Layer inception_4b/5x5_reduce
I0701 22:22:07.052666 18021 net.cpp:434] inception_4b/5x5_reduce <- inception_4a/output_inception_4a/output_0_split_2
I0701 22:22:07.052671 18021 net.cpp:408] inception_4b/5x5_reduce -> inception_4b/5x5_reduce
I0701 22:22:07.052894 18021 net.cpp:150] Setting up inception_4b/5x5_reduce
I0701 22:22:07.052902 18021 net.cpp:157] Top shape: 32 24 4 4 (12288)
I0701 22:22:07.052906 18021 net.cpp:165] Memory required for data: 103858304
I0701 22:22:07.052911 18021 layer_factory.hpp:77] Creating layer inception_4b/relu_5x5_reduce
I0701 22:22:07.052917 18021 net.cpp:100] Creating Layer inception_4b/relu_5x5_reduce
I0701 22:22:07.052924 18021 net.cpp:434] inception_4b/relu_5x5_reduce <- inception_4b/5x5_reduce
I0701 22:22:07.052937 18021 net.cpp:395] inception_4b/relu_5x5_reduce -> inception_4b/5x5_reduce (in-place)
I0701 22:22:07.052942 18021 net.cpp:150] Setting up inception_4b/relu_5x5_reduce
I0701 22:22:07.052947 18021 net.cpp:157] Top shape: 32 24 4 4 (12288)
I0701 22:22:07.052950 18021 net.cpp:165] Memory required for data: 103907456
I0701 22:22:07.052953 18021 layer_factory.hpp:77] Creating layer inception_4b/5x5
I0701 22:22:07.052961 18021 net.cpp:100] Creating Layer inception_4b/5x5
I0701 22:22:07.052965 18021 net.cpp:434] inception_4b/5x5 <- inception_4b/5x5_reduce
I0701 22:22:07.052970 18021 net.cpp:408] inception_4b/5x5 -> inception_4b/5x5
I0701 22:22:07.053710 18021 net.cpp:150] Setting up inception_4b/5x5
I0701 22:22:07.053722 18021 net.cpp:157] Top shape: 32 64 4 4 (32768)
I0701 22:22:07.053726 18021 net.cpp:165] Memory required for data: 104038528
I0701 22:22:07.053731 18021 layer_factory.hpp:77] Creating layer inception_4b/relu_5x5
I0701 22:22:07.053738 18021 net.cpp:100] Creating Layer inception_4b/relu_5x5
I0701 22:22:07.053743 18021 net.cpp:434] inception_4b/relu_5x5 <- inception_4b/5x5
I0701 22:22:07.053748 18021 net.cpp:395] inception_4b/relu_5x5 -> inception_4b/5x5 (in-place)
I0701 22:22:07.053755 18021 net.cpp:150] Setting up inception_4b/relu_5x5
I0701 22:22:07.053759 18021 net.cpp:157] Top shape: 32 64 4 4 (32768)
I0701 22:22:07.053762 18021 net.cpp:165] Memory required for data: 104169600
I0701 22:22:07.053766 18021 layer_factory.hpp:77] Creating layer inception_4b/pool
I0701 22:22:07.053772 18021 net.cpp:100] Creating Layer inception_4b/pool
I0701 22:22:07.053776 18021 net.cpp:434] inception_4b/pool <- inception_4a/output_inception_4a/output_0_split_3
I0701 22:22:07.053781 18021 net.cpp:408] inception_4b/pool -> inception_4b/pool
I0701 22:22:07.053814 18021 net.cpp:150] Setting up inception_4b/pool
I0701 22:22:07.053820 18021 net.cpp:157] Top shape: 32 512 4 4 (262144)
I0701 22:22:07.053823 18021 net.cpp:165] Memory required for data: 105218176
I0701 22:22:07.053827 18021 layer_factory.hpp:77] Creating layer inception_4b/pool_proj
I0701 22:22:07.053834 18021 net.cpp:100] Creating Layer inception_4b/pool_proj
I0701 22:22:07.053838 18021 net.cpp:434] inception_4b/pool_proj <- inception_4b/pool
I0701 22:22:07.053845 18021 net.cpp:408] inception_4b/pool_proj -> inception_4b/pool_proj
I0701 22:22:07.054157 18021 net.cpp:150] Setting up inception_4b/pool_proj
I0701 22:22:07.054164 18021 net.cpp:157] Top shape: 32 64 4 4 (32768)
I0701 22:22:07.054167 18021 net.cpp:165] Memory required for data: 105349248
I0701 22:22:07.054173 18021 layer_factory.hpp:77] Creating layer inception_4b/relu_pool_proj
I0701 22:22:07.054178 18021 net.cpp:100] Creating Layer inception_4b/relu_pool_proj
I0701 22:22:07.054183 18021 net.cpp:434] inception_4b/relu_pool_proj <- inception_4b/pool_proj
I0701 22:22:07.054188 18021 net.cpp:395] inception_4b/relu_pool_proj -> inception_4b/pool_proj (in-place)
I0701 22:22:07.054193 18021 net.cpp:150] Setting up inception_4b/relu_pool_proj
I0701 22:22:07.054198 18021 net.cpp:157] Top shape: 32 64 4 4 (32768)
I0701 22:22:07.054201 18021 net.cpp:165] Memory required for data: 105480320
I0701 22:22:07.054204 18021 layer_factory.hpp:77] Creating layer inception_4b/output
I0701 22:22:07.054210 18021 net.cpp:100] Creating Layer inception_4b/output
I0701 22:22:07.054214 18021 net.cpp:434] inception_4b/output <- inception_4b/1x1
I0701 22:22:07.054219 18021 net.cpp:434] inception_4b/output <- inception_4b/3x3
I0701 22:22:07.054221 18021 net.cpp:434] inception_4b/output <- inception_4b/5x5
I0701 22:22:07.054225 18021 net.cpp:434] inception_4b/output <- inception_4b/pool_proj
I0701 22:22:07.054231 18021 net.cpp:408] inception_4b/output -> inception_4b/output
I0701 22:22:07.054250 18021 net.cpp:150] Setting up inception_4b/output
I0701 22:22:07.054257 18021 net.cpp:157] Top shape: 32 512 4 4 (262144)
I0701 22:22:07.054260 18021 net.cpp:165] Memory required for data: 106528896
I0701 22:22:07.054263 18021 layer_factory.hpp:77] Creating layer inception_4b/output_inception_4b/output_0_split
I0701 22:22:07.054277 18021 net.cpp:100] Creating Layer inception_4b/output_inception_4b/output_0_split
I0701 22:22:07.054281 18021 net.cpp:434] inception_4b/output_inception_4b/output_0_split <- inception_4b/output
I0701 22:22:07.054287 18021 net.cpp:408] inception_4b/output_inception_4b/output_0_split -> inception_4b/output_inception_4b/output_0_split_0
I0701 22:22:07.054294 18021 net.cpp:408] inception_4b/output_inception_4b/output_0_split -> inception_4b/output_inception_4b/output_0_split_1
I0701 22:22:07.054299 18021 net.cpp:408] inception_4b/output_inception_4b/output_0_split -> inception_4b/output_inception_4b/output_0_split_2
I0701 22:22:07.054306 18021 net.cpp:408] inception_4b/output_inception_4b/output_0_split -> inception_4b/output_inception_4b/output_0_split_3
I0701 22:22:07.054348 18021 net.cpp:150] Setting up inception_4b/output_inception_4b/output_0_split
I0701 22:22:07.054354 18021 net.cpp:157] Top shape: 32 512 4 4 (262144)
I0701 22:22:07.054358 18021 net.cpp:157] Top shape: 32 512 4 4 (262144)
I0701 22:22:07.054363 18021 net.cpp:157] Top shape: 32 512 4 4 (262144)
I0701 22:22:07.054365 18021 net.cpp:157] Top shape: 32 512 4 4 (262144)
I0701 22:22:07.054368 18021 net.cpp:165] Memory required for data: 110723200
I0701 22:22:07.054373 18021 layer_factory.hpp:77] Creating layer inception_4c/1x1
I0701 22:22:07.054380 18021 net.cpp:100] Creating Layer inception_4c/1x1
I0701 22:22:07.054384 18021 net.cpp:434] inception_4c/1x1 <- inception_4b/output_inception_4b/output_0_split_0
I0701 22:22:07.054392 18021 net.cpp:408] inception_4c/1x1 -> inception_4c/1x1
I0701 22:22:07.054847 18021 net.cpp:150] Setting up inception_4c/1x1
I0701 22:22:07.054854 18021 net.cpp:157] Top shape: 32 128 4 4 (65536)
I0701 22:22:07.054858 18021 net.cpp:165] Memory required for data: 110985344
I0701 22:22:07.054863 18021 layer_factory.hpp:77] Creating layer inception_4c/relu_1x1
I0701 22:22:07.054868 18021 net.cpp:100] Creating Layer inception_4c/relu_1x1
I0701 22:22:07.054872 18021 net.cpp:434] inception_4c/relu_1x1 <- inception_4c/1x1
I0701 22:22:07.054877 18021 net.cpp:395] inception_4c/relu_1x1 -> inception_4c/1x1 (in-place)
I0701 22:22:07.054883 18021 net.cpp:150] Setting up inception_4c/relu_1x1
I0701 22:22:07.054886 18021 net.cpp:157] Top shape: 32 128 4 4 (65536)
I0701 22:22:07.054890 18021 net.cpp:165] Memory required for data: 111247488
I0701 22:22:07.054893 18021 layer_factory.hpp:77] Creating layer inception_4c/3x3_reduce
I0701 22:22:07.054901 18021 net.cpp:100] Creating Layer inception_4c/3x3_reduce
I0701 22:22:07.054904 18021 net.cpp:434] inception_4c/3x3_reduce <- inception_4b/output_inception_4b/output_0_split_1
I0701 22:22:07.054911 18021 net.cpp:408] inception_4c/3x3_reduce -> inception_4c/3x3_reduce
I0701 22:22:07.055371 18021 net.cpp:150] Setting up inception_4c/3x3_reduce
I0701 22:22:07.055379 18021 net.cpp:157] Top shape: 32 128 4 4 (65536)
I0701 22:22:07.055382 18021 net.cpp:165] Memory required for data: 111509632
I0701 22:22:07.055387 18021 layer_factory.hpp:77] Creating layer inception_4c/relu_3x3_reduce
I0701 22:22:07.055392 18021 net.cpp:100] Creating Layer inception_4c/relu_3x3_reduce
I0701 22:22:07.055397 18021 net.cpp:434] inception_4c/relu_3x3_reduce <- inception_4c/3x3_reduce
I0701 22:22:07.055402 18021 net.cpp:395] inception_4c/relu_3x3_reduce -> inception_4c/3x3_reduce (in-place)
I0701 22:22:07.055408 18021 net.cpp:150] Setting up inception_4c/relu_3x3_reduce
I0701 22:22:07.055413 18021 net.cpp:157] Top shape: 32 128 4 4 (65536)
I0701 22:22:07.055415 18021 net.cpp:165] Memory required for data: 111771776
I0701 22:22:07.055418 18021 layer_factory.hpp:77] Creating layer inception_4c/3x3
I0701 22:22:07.055426 18021 net.cpp:100] Creating Layer inception_4c/3x3
I0701 22:22:07.055430 18021 net.cpp:434] inception_4c/3x3 <- inception_4c/3x3_reduce
I0701 22:22:07.055435 18021 net.cpp:408] inception_4c/3x3 -> inception_4c/3x3
I0701 22:22:07.061564 18021 net.cpp:150] Setting up inception_4c/3x3
I0701 22:22:07.061594 18021 net.cpp:157] Top shape: 32 256 4 4 (131072)
I0701 22:22:07.061614 18021 net.cpp:165] Memory required for data: 112296064
I0701 22:22:07.061622 18021 layer_factory.hpp:77] Creating layer inception_4c/relu_3x3
I0701 22:22:07.061632 18021 net.cpp:100] Creating Layer inception_4c/relu_3x3
I0701 22:22:07.061638 18021 net.cpp:434] inception_4c/relu_3x3 <- inception_4c/3x3
I0701 22:22:07.061645 18021 net.cpp:395] inception_4c/relu_3x3 -> inception_4c/3x3 (in-place)
I0701 22:22:07.061653 18021 net.cpp:150] Setting up inception_4c/relu_3x3
I0701 22:22:07.061658 18021 net.cpp:157] Top shape: 32 256 4 4 (131072)
I0701 22:22:07.061662 18021 net.cpp:165] Memory required for data: 112820352
I0701 22:22:07.061666 18021 layer_factory.hpp:77] Creating layer inception_4c/5x5_reduce
I0701 22:22:07.061674 18021 net.cpp:100] Creating Layer inception_4c/5x5_reduce
I0701 22:22:07.061679 18021 net.cpp:434] inception_4c/5x5_reduce <- inception_4b/output_inception_4b/output_0_split_2
I0701 22:22:07.061687 18021 net.cpp:408] inception_4c/5x5_reduce -> inception_4c/5x5_reduce
I0701 22:22:07.061931 18021 net.cpp:150] Setting up inception_4c/5x5_reduce
I0701 22:22:07.061939 18021 net.cpp:157] Top shape: 32 24 4 4 (12288)
I0701 22:22:07.061942 18021 net.cpp:165] Memory required for data: 112869504
I0701 22:22:07.061949 18021 layer_factory.hpp:77] Creating layer inception_4c/relu_5x5_reduce
I0701 22:22:07.061954 18021 net.cpp:100] Creating Layer inception_4c/relu_5x5_reduce
I0701 22:22:07.061957 18021 net.cpp:434] inception_4c/relu_5x5_reduce <- inception_4c/5x5_reduce
I0701 22:22:07.061964 18021 net.cpp:395] inception_4c/relu_5x5_reduce -> inception_4c/5x5_reduce (in-place)
I0701 22:22:07.061969 18021 net.cpp:150] Setting up inception_4c/relu_5x5_reduce
I0701 22:22:07.061974 18021 net.cpp:157] Top shape: 32 24 4 4 (12288)
I0701 22:22:07.061976 18021 net.cpp:165] Memory required for data: 112918656
I0701 22:22:07.061980 18021 layer_factory.hpp:77] Creating layer inception_4c/5x5
I0701 22:22:07.061987 18021 net.cpp:100] Creating Layer inception_4c/5x5
I0701 22:22:07.061990 18021 net.cpp:434] inception_4c/5x5 <- inception_4c/5x5_reduce
I0701 22:22:07.061996 18021 net.cpp:408] inception_4c/5x5 -> inception_4c/5x5
I0701 22:22:07.062342 18021 net.cpp:150] Setting up inception_4c/5x5
I0701 22:22:07.062350 18021 net.cpp:157] Top shape: 32 64 4 4 (32768)
I0701 22:22:07.062355 18021 net.cpp:165] Memory required for data: 113049728
I0701 22:22:07.062360 18021 layer_factory.hpp:77] Creating layer inception_4c/relu_5x5
I0701 22:22:07.062364 18021 net.cpp:100] Creating Layer inception_4c/relu_5x5
I0701 22:22:07.062368 18021 net.cpp:434] inception_4c/relu_5x5 <- inception_4c/5x5
I0701 22:22:07.062372 18021 net.cpp:395] inception_4c/relu_5x5 -> inception_4c/5x5 (in-place)
I0701 22:22:07.062378 18021 net.cpp:150] Setting up inception_4c/relu_5x5
I0701 22:22:07.062382 18021 net.cpp:157] Top shape: 32 64 4 4 (32768)
I0701 22:22:07.062386 18021 net.cpp:165] Memory required for data: 113180800
I0701 22:22:07.062389 18021 layer_factory.hpp:77] Creating layer inception_4c/pool
I0701 22:22:07.062397 18021 net.cpp:100] Creating Layer inception_4c/pool
I0701 22:22:07.062399 18021 net.cpp:434] inception_4c/pool <- inception_4b/output_inception_4b/output_0_split_3
I0701 22:22:07.062405 18021 net.cpp:408] inception_4c/pool -> inception_4c/pool
I0701 22:22:07.062436 18021 net.cpp:150] Setting up inception_4c/pool
I0701 22:22:07.062443 18021 net.cpp:157] Top shape: 32 512 4 4 (262144)
I0701 22:22:07.062445 18021 net.cpp:165] Memory required for data: 114229376
I0701 22:22:07.062448 18021 layer_factory.hpp:77] Creating layer inception_4c/pool_proj
I0701 22:22:07.062456 18021 net.cpp:100] Creating Layer inception_4c/pool_proj
I0701 22:22:07.062460 18021 net.cpp:434] inception_4c/pool_proj <- inception_4c/pool
I0701 22:22:07.062466 18021 net.cpp:408] inception_4c/pool_proj -> inception_4c/pool_proj
I0701 22:22:07.063246 18021 net.cpp:150] Setting up inception_4c/pool_proj
I0701 22:22:07.063259 18021 net.cpp:157] Top shape: 32 64 4 4 (32768)
I0701 22:22:07.063262 18021 net.cpp:165] Memory required for data: 114360448
I0701 22:22:07.063282 18021 layer_factory.hpp:77] Creating layer inception_4c/relu_pool_proj
I0701 22:22:07.063293 18021 net.cpp:100] Creating Layer inception_4c/relu_pool_proj
I0701 22:22:07.063297 18021 net.cpp:434] inception_4c/relu_pool_proj <- inception_4c/pool_proj
I0701 22:22:07.063302 18021 net.cpp:395] inception_4c/relu_pool_proj -> inception_4c/pool_proj (in-place)
I0701 22:22:07.063309 18021 net.cpp:150] Setting up inception_4c/relu_pool_proj
I0701 22:22:07.063314 18021 net.cpp:157] Top shape: 32 64 4 4 (32768)
I0701 22:22:07.063318 18021 net.cpp:165] Memory required for data: 114491520
I0701 22:22:07.063321 18021 layer_factory.hpp:77] Creating layer inception_4c/output
I0701 22:22:07.063326 18021 net.cpp:100] Creating Layer inception_4c/output
I0701 22:22:07.063330 18021 net.cpp:434] inception_4c/output <- inception_4c/1x1
I0701 22:22:07.063334 18021 net.cpp:434] inception_4c/output <- inception_4c/3x3
I0701 22:22:07.063338 18021 net.cpp:434] inception_4c/output <- inception_4c/5x5
I0701 22:22:07.063343 18021 net.cpp:434] inception_4c/output <- inception_4c/pool_proj
I0701 22:22:07.063349 18021 net.cpp:408] inception_4c/output -> inception_4c/output
I0701 22:22:07.063370 18021 net.cpp:150] Setting up inception_4c/output
I0701 22:22:07.063376 18021 net.cpp:157] Top shape: 32 512 4 4 (262144)
I0701 22:22:07.063380 18021 net.cpp:165] Memory required for data: 115540096
I0701 22:22:07.063383 18021 layer_factory.hpp:77] Creating layer inception_4c/output_inception_4c/output_0_split
I0701 22:22:07.063390 18021 net.cpp:100] Creating Layer inception_4c/output_inception_4c/output_0_split
I0701 22:22:07.063392 18021 net.cpp:434] inception_4c/output_inception_4c/output_0_split <- inception_4c/output
I0701 22:22:07.063400 18021 net.cpp:408] inception_4c/output_inception_4c/output_0_split -> inception_4c/output_inception_4c/output_0_split_0
I0701 22:22:07.063405 18021 net.cpp:408] inception_4c/output_inception_4c/output_0_split -> inception_4c/output_inception_4c/output_0_split_1
I0701 22:22:07.063412 18021 net.cpp:408] inception_4c/output_inception_4c/output_0_split -> inception_4c/output_inception_4c/output_0_split_2
I0701 22:22:07.063418 18021 net.cpp:408] inception_4c/output_inception_4c/output_0_split -> inception_4c/output_inception_4c/output_0_split_3
I0701 22:22:07.063462 18021 net.cpp:150] Setting up inception_4c/output_inception_4c/output_0_split
I0701 22:22:07.063467 18021 net.cpp:157] Top shape: 32 512 4 4 (262144)
I0701 22:22:07.063472 18021 net.cpp:157] Top shape: 32 512 4 4 (262144)
I0701 22:22:07.063475 18021 net.cpp:157] Top shape: 32 512 4 4 (262144)
I0701 22:22:07.063479 18021 net.cpp:157] Top shape: 32 512 4 4 (262144)
I0701 22:22:07.063482 18021 net.cpp:165] Memory required for data: 119734400
I0701 22:22:07.063486 18021 layer_factory.hpp:77] Creating layer inception_4d/1x1
I0701 22:22:07.063493 18021 net.cpp:100] Creating Layer inception_4d/1x1
I0701 22:22:07.063498 18021 net.cpp:434] inception_4d/1x1 <- inception_4c/output_inception_4c/output_0_split_0
I0701 22:22:07.063504 18021 net.cpp:408] inception_4d/1x1 -> inception_4d/1x1
I0701 22:22:07.063930 18021 net.cpp:150] Setting up inception_4d/1x1
I0701 22:22:07.063937 18021 net.cpp:157] Top shape: 32 112 4 4 (57344)
I0701 22:22:07.063941 18021 net.cpp:165] Memory required for data: 119963776
I0701 22:22:07.063946 18021 layer_factory.hpp:77] Creating layer inception_4d/relu_1x1
I0701 22:22:07.063951 18021 net.cpp:100] Creating Layer inception_4d/relu_1x1
I0701 22:22:07.063956 18021 net.cpp:434] inception_4d/relu_1x1 <- inception_4d/1x1
I0701 22:22:07.063961 18021 net.cpp:395] inception_4d/relu_1x1 -> inception_4d/1x1 (in-place)
I0701 22:22:07.063966 18021 net.cpp:150] Setting up inception_4d/relu_1x1
I0701 22:22:07.063971 18021 net.cpp:157] Top shape: 32 112 4 4 (57344)
I0701 22:22:07.063974 18021 net.cpp:165] Memory required for data: 120193152
I0701 22:22:07.063977 18021 layer_factory.hpp:77] Creating layer inception_4d/3x3_reduce
I0701 22:22:07.063985 18021 net.cpp:100] Creating Layer inception_4d/3x3_reduce
I0701 22:22:07.063992 18021 net.cpp:434] inception_4d/3x3_reduce <- inception_4c/output_inception_4c/output_0_split_1
I0701 22:22:07.064002 18021 net.cpp:408] inception_4d/3x3_reduce -> inception_4d/3x3_reduce
I0701 22:22:07.064512 18021 net.cpp:150] Setting up inception_4d/3x3_reduce
I0701 22:22:07.064519 18021 net.cpp:157] Top shape: 32 144 4 4 (73728)
I0701 22:22:07.064522 18021 net.cpp:165] Memory required for data: 120488064
I0701 22:22:07.064550 18021 layer_factory.hpp:77] Creating layer inception_4d/relu_3x3_reduce
I0701 22:22:07.064556 18021 net.cpp:100] Creating Layer inception_4d/relu_3x3_reduce
I0701 22:22:07.064560 18021 net.cpp:434] inception_4d/relu_3x3_reduce <- inception_4d/3x3_reduce
I0701 22:22:07.064576 18021 net.cpp:395] inception_4d/relu_3x3_reduce -> inception_4d/3x3_reduce (in-place)
I0701 22:22:07.064581 18021 net.cpp:150] Setting up inception_4d/relu_3x3_reduce
I0701 22:22:07.064586 18021 net.cpp:157] Top shape: 32 144 4 4 (73728)
I0701 22:22:07.064589 18021 net.cpp:165] Memory required for data: 120782976
I0701 22:22:07.064594 18021 layer_factory.hpp:77] Creating layer inception_4d/3x3
I0701 22:22:07.064600 18021 net.cpp:100] Creating Layer inception_4d/3x3
I0701 22:22:07.064604 18021 net.cpp:434] inception_4d/3x3 <- inception_4d/3x3_reduce
I0701 22:22:07.064610 18021 net.cpp:408] inception_4d/3x3 -> inception_4d/3x3
I0701 22:22:07.067013 18021 net.cpp:150] Setting up inception_4d/3x3
I0701 22:22:07.067031 18021 net.cpp:157] Top shape: 32 288 4 4 (147456)
I0701 22:22:07.067035 18021 net.cpp:165] Memory required for data: 121372800
I0701 22:22:07.067041 18021 layer_factory.hpp:77] Creating layer inception_4d/relu_3x3
I0701 22:22:07.067049 18021 net.cpp:100] Creating Layer inception_4d/relu_3x3
I0701 22:22:07.067052 18021 net.cpp:434] inception_4d/relu_3x3 <- inception_4d/3x3
I0701 22:22:07.067059 18021 net.cpp:395] inception_4d/relu_3x3 -> inception_4d/3x3 (in-place)
I0701 22:22:07.067067 18021 net.cpp:150] Setting up inception_4d/relu_3x3
I0701 22:22:07.067072 18021 net.cpp:157] Top shape: 32 288 4 4 (147456)
I0701 22:22:07.067075 18021 net.cpp:165] Memory required for data: 121962624
I0701 22:22:07.067078 18021 layer_factory.hpp:77] Creating layer inception_4d/5x5_reduce
I0701 22:22:07.067087 18021 net.cpp:100] Creating Layer inception_4d/5x5_reduce
I0701 22:22:07.067091 18021 net.cpp:434] inception_4d/5x5_reduce <- inception_4c/output_inception_4c/output_0_split_2
I0701 22:22:07.067098 18021 net.cpp:408] inception_4d/5x5_reduce -> inception_4d/5x5_reduce
I0701 22:22:07.067353 18021 net.cpp:150] Setting up inception_4d/5x5_reduce
I0701 22:22:07.067360 18021 net.cpp:157] Top shape: 32 32 4 4 (16384)
I0701 22:22:07.067364 18021 net.cpp:165] Memory required for data: 122028160
I0701 22:22:07.067369 18021 layer_factory.hpp:77] Creating layer inception_4d/relu_5x5_reduce
I0701 22:22:07.067374 18021 net.cpp:100] Creating Layer inception_4d/relu_5x5_reduce
I0701 22:22:07.067378 18021 net.cpp:434] inception_4d/relu_5x5_reduce <- inception_4d/5x5_reduce
I0701 22:22:07.067384 18021 net.cpp:395] inception_4d/relu_5x5_reduce -> inception_4d/5x5_reduce (in-place)
I0701 22:22:07.067390 18021 net.cpp:150] Setting up inception_4d/relu_5x5_reduce
I0701 22:22:07.067394 18021 net.cpp:157] Top shape: 32 32 4 4 (16384)
I0701 22:22:07.067397 18021 net.cpp:165] Memory required for data: 122093696
I0701 22:22:07.067401 18021 layer_factory.hpp:77] Creating layer inception_4d/5x5
I0701 22:22:07.067409 18021 net.cpp:100] Creating Layer inception_4d/5x5
I0701 22:22:07.067414 18021 net.cpp:434] inception_4d/5x5 <- inception_4d/5x5_reduce
I0701 22:22:07.067418 18021 net.cpp:408] inception_4d/5x5 -> inception_4d/5x5
I0701 22:22:07.067829 18021 net.cpp:150] Setting up inception_4d/5x5
I0701 22:22:07.067836 18021 net.cpp:157] Top shape: 32 64 4 4 (32768)
I0701 22:22:07.067840 18021 net.cpp:165] Memory required for data: 122224768
I0701 22:22:07.067845 18021 layer_factory.hpp:77] Creating layer inception_4d/relu_5x5
I0701 22:22:07.067852 18021 net.cpp:100] Creating Layer inception_4d/relu_5x5
I0701 22:22:07.067855 18021 net.cpp:434] inception_4d/relu_5x5 <- inception_4d/5x5
I0701 22:22:07.067873 18021 net.cpp:395] inception_4d/relu_5x5 -> inception_4d/5x5 (in-place)
I0701 22:22:07.067878 18021 net.cpp:150] Setting up inception_4d/relu_5x5
I0701 22:22:07.067883 18021 net.cpp:157] Top shape: 32 64 4 4 (32768)
I0701 22:22:07.067885 18021 net.cpp:165] Memory required for data: 122355840
I0701 22:22:07.067889 18021 layer_factory.hpp:77] Creating layer inception_4d/pool
I0701 22:22:07.067896 18021 net.cpp:100] Creating Layer inception_4d/pool
I0701 22:22:07.067900 18021 net.cpp:434] inception_4d/pool <- inception_4c/output_inception_4c/output_0_split_3
I0701 22:22:07.067905 18021 net.cpp:408] inception_4d/pool -> inception_4d/pool
I0701 22:22:07.067937 18021 net.cpp:150] Setting up inception_4d/pool
I0701 22:22:07.067944 18021 net.cpp:157] Top shape: 32 512 4 4 (262144)
I0701 22:22:07.067947 18021 net.cpp:165] Memory required for data: 123404416
I0701 22:22:07.067950 18021 layer_factory.hpp:77] Creating layer inception_4d/pool_proj
I0701 22:22:07.067957 18021 net.cpp:100] Creating Layer inception_4d/pool_proj
I0701 22:22:07.067961 18021 net.cpp:434] inception_4d/pool_proj <- inception_4d/pool
I0701 22:22:07.067968 18021 net.cpp:408] inception_4d/pool_proj -> inception_4d/pool_proj
I0701 22:22:07.068284 18021 net.cpp:150] Setting up inception_4d/pool_proj
I0701 22:22:07.068291 18021 net.cpp:157] Top shape: 32 64 4 4 (32768)
I0701 22:22:07.068295 18021 net.cpp:165] Memory required for data: 123535488
I0701 22:22:07.068300 18021 layer_factory.hpp:77] Creating layer inception_4d/relu_pool_proj
I0701 22:22:07.068305 18021 net.cpp:100] Creating Layer inception_4d/relu_pool_proj
I0701 22:22:07.068308 18021 net.cpp:434] inception_4d/relu_pool_proj <- inception_4d/pool_proj
I0701 22:22:07.068315 18021 net.cpp:395] inception_4d/relu_pool_proj -> inception_4d/pool_proj (in-place)
I0701 22:22:07.068320 18021 net.cpp:150] Setting up inception_4d/relu_pool_proj
I0701 22:22:07.068325 18021 net.cpp:157] Top shape: 32 64 4 4 (32768)
I0701 22:22:07.068327 18021 net.cpp:165] Memory required for data: 123666560
I0701 22:22:07.068331 18021 layer_factory.hpp:77] Creating layer inception_4d/output
I0701 22:22:07.068336 18021 net.cpp:100] Creating Layer inception_4d/output
I0701 22:22:07.068339 18021 net.cpp:434] inception_4d/output <- inception_4d/1x1
I0701 22:22:07.068343 18021 net.cpp:434] inception_4d/output <- inception_4d/3x3
I0701 22:22:07.068347 18021 net.cpp:434] inception_4d/output <- inception_4d/5x5
I0701 22:22:07.068351 18021 net.cpp:434] inception_4d/output <- inception_4d/pool_proj
I0701 22:22:07.068356 18021 net.cpp:408] inception_4d/output -> inception_4d/output
I0701 22:22:07.068375 18021 net.cpp:150] Setting up inception_4d/output
I0701 22:22:07.068382 18021 net.cpp:157] Top shape: 32 528 4 4 (270336)
I0701 22:22:07.068384 18021 net.cpp:165] Memory required for data: 124747904
I0701 22:22:07.068387 18021 layer_factory.hpp:77] Creating layer inception_4d/output_inception_4d/output_0_split
I0701 22:22:07.068395 18021 net.cpp:100] Creating Layer inception_4d/output_inception_4d/output_0_split
I0701 22:22:07.068398 18021 net.cpp:434] inception_4d/output_inception_4d/output_0_split <- inception_4d/output
I0701 22:22:07.068404 18021 net.cpp:408] inception_4d/output_inception_4d/output_0_split -> inception_4d/output_inception_4d/output_0_split_0
I0701 22:22:07.068410 18021 net.cpp:408] inception_4d/output_inception_4d/output_0_split -> inception_4d/output_inception_4d/output_0_split_1
I0701 22:22:07.068416 18021 net.cpp:408] inception_4d/output_inception_4d/output_0_split -> inception_4d/output_inception_4d/output_0_split_2
I0701 22:22:07.068423 18021 net.cpp:408] inception_4d/output_inception_4d/output_0_split -> inception_4d/output_inception_4d/output_0_split_3
I0701 22:22:07.068464 18021 net.cpp:150] Setting up inception_4d/output_inception_4d/output_0_split
I0701 22:22:07.068470 18021 net.cpp:157] Top shape: 32 528 4 4 (270336)
I0701 22:22:07.068475 18021 net.cpp:157] Top shape: 32 528 4 4 (270336)
I0701 22:22:07.068478 18021 net.cpp:157] Top shape: 32 528 4 4 (270336)
I0701 22:22:07.068485 18021 net.cpp:157] Top shape: 32 528 4 4 (270336)
I0701 22:22:07.068493 18021 net.cpp:165] Memory required for data: 129073280
I0701 22:22:07.068496 18021 layer_factory.hpp:77] Creating layer inception_4e/1x1
I0701 22:22:07.068505 18021 net.cpp:100] Creating Layer inception_4e/1x1
I0701 22:22:07.068508 18021 net.cpp:434] inception_4e/1x1 <- inception_4d/output_inception_4d/output_0_split_0
I0701 22:22:07.068516 18021 net.cpp:408] inception_4e/1x1 -> inception_4e/1x1
I0701 22:22:07.069764 18021 net.cpp:150] Setting up inception_4e/1x1
I0701 22:22:07.069780 18021 net.cpp:157] Top shape: 32 256 4 4 (131072)
I0701 22:22:07.069783 18021 net.cpp:165] Memory required for data: 129597568
I0701 22:22:07.069790 18021 layer_factory.hpp:77] Creating layer inception_4e/relu_1x1
I0701 22:22:07.069795 18021 net.cpp:100] Creating Layer inception_4e/relu_1x1
I0701 22:22:07.069799 18021 net.cpp:434] inception_4e/relu_1x1 <- inception_4e/1x1
I0701 22:22:07.069804 18021 net.cpp:395] inception_4e/relu_1x1 -> inception_4e/1x1 (in-place)
I0701 22:22:07.069811 18021 net.cpp:150] Setting up inception_4e/relu_1x1
I0701 22:22:07.069815 18021 net.cpp:157] Top shape: 32 256 4 4 (131072)
I0701 22:22:07.069819 18021 net.cpp:165] Memory required for data: 130121856
I0701 22:22:07.069823 18021 layer_factory.hpp:77] Creating layer inception_4e/3x3_reduce
I0701 22:22:07.069830 18021 net.cpp:100] Creating Layer inception_4e/3x3_reduce
I0701 22:22:07.069834 18021 net.cpp:434] inception_4e/3x3_reduce <- inception_4d/output_inception_4d/output_0_split_1
I0701 22:22:07.069841 18021 net.cpp:408] inception_4e/3x3_reduce -> inception_4e/3x3_reduce
I0701 22:22:07.070446 18021 net.cpp:150] Setting up inception_4e/3x3_reduce
I0701 22:22:07.070454 18021 net.cpp:157] Top shape: 32 160 4 4 (81920)
I0701 22:22:07.070458 18021 net.cpp:165] Memory required for data: 130449536
I0701 22:22:07.070463 18021 layer_factory.hpp:77] Creating layer inception_4e/relu_3x3_reduce
I0701 22:22:07.070469 18021 net.cpp:100] Creating Layer inception_4e/relu_3x3_reduce
I0701 22:22:07.070473 18021 net.cpp:434] inception_4e/relu_3x3_reduce <- inception_4e/3x3_reduce
I0701 22:22:07.070478 18021 net.cpp:395] inception_4e/relu_3x3_reduce -> inception_4e/3x3_reduce (in-place)
I0701 22:22:07.070483 18021 net.cpp:150] Setting up inception_4e/relu_3x3_reduce
I0701 22:22:07.070488 18021 net.cpp:157] Top shape: 32 160 4 4 (81920)
I0701 22:22:07.070492 18021 net.cpp:165] Memory required for data: 130777216
I0701 22:22:07.070495 18021 layer_factory.hpp:77] Creating layer inception_4e/3x3
I0701 22:22:07.070505 18021 net.cpp:100] Creating Layer inception_4e/3x3
I0701 22:22:07.070509 18021 net.cpp:434] inception_4e/3x3 <- inception_4e/3x3_reduce
I0701 22:22:07.070515 18021 net.cpp:408] inception_4e/3x3 -> inception_4e/3x3
I0701 22:22:07.073879 18021 net.cpp:150] Setting up inception_4e/3x3
I0701 22:22:07.073911 18021 net.cpp:157] Top shape: 32 320 4 4 (163840)
I0701 22:22:07.073915 18021 net.cpp:165] Memory required for data: 131432576
I0701 22:22:07.073925 18021 layer_factory.hpp:77] Creating layer inception_4e/relu_3x3
I0701 22:22:07.073933 18021 net.cpp:100] Creating Layer inception_4e/relu_3x3
I0701 22:22:07.073940 18021 net.cpp:434] inception_4e/relu_3x3 <- inception_4e/3x3
I0701 22:22:07.073948 18021 net.cpp:395] inception_4e/relu_3x3 -> inception_4e/3x3 (in-place)
I0701 22:22:07.073957 18021 net.cpp:150] Setting up inception_4e/relu_3x3
I0701 22:22:07.073972 18021 net.cpp:157] Top shape: 32 320 4 4 (163840)
I0701 22:22:07.073976 18021 net.cpp:165] Memory required for data: 132087936
I0701 22:22:07.073979 18021 layer_factory.hpp:77] Creating layer inception_4e/5x5_reduce
I0701 22:22:07.073992 18021 net.cpp:100] Creating Layer inception_4e/5x5_reduce
I0701 22:22:07.073995 18021 net.cpp:434] inception_4e/5x5_reduce <- inception_4d/output_inception_4d/output_0_split_2
I0701 22:22:07.074002 18021 net.cpp:408] inception_4e/5x5_reduce -> inception_4e/5x5_reduce
I0701 22:22:07.074306 18021 net.cpp:150] Setting up inception_4e/5x5_reduce
I0701 22:22:07.074316 18021 net.cpp:157] Top shape: 32 32 4 4 (16384)
I0701 22:22:07.074335 18021 net.cpp:165] Memory required for data: 132153472
I0701 22:22:07.074349 18021 layer_factory.hpp:77] Creating layer inception_4e/relu_5x5_reduce
I0701 22:22:07.074355 18021 net.cpp:100] Creating Layer inception_4e/relu_5x5_reduce
I0701 22:22:07.074369 18021 net.cpp:434] inception_4e/relu_5x5_reduce <- inception_4e/5x5_reduce
I0701 22:22:07.074374 18021 net.cpp:395] inception_4e/relu_5x5_reduce -> inception_4e/5x5_reduce (in-place)
I0701 22:22:07.074380 18021 net.cpp:150] Setting up inception_4e/relu_5x5_reduce
I0701 22:22:07.074385 18021 net.cpp:157] Top shape: 32 32 4 4 (16384)
I0701 22:22:07.074389 18021 net.cpp:165] Memory required for data: 132219008
I0701 22:22:07.074393 18021 layer_factory.hpp:77] Creating layer inception_4e/5x5
I0701 22:22:07.074403 18021 net.cpp:100] Creating Layer inception_4e/5x5
I0701 22:22:07.074406 18021 net.cpp:434] inception_4e/5x5 <- inception_4e/5x5_reduce
I0701 22:22:07.074414 18021 net.cpp:408] inception_4e/5x5 -> inception_4e/5x5
I0701 22:22:07.075711 18021 net.cpp:150] Setting up inception_4e/5x5
I0701 22:22:07.075732 18021 net.cpp:157] Top shape: 32 128 4 4 (65536)
I0701 22:22:07.075736 18021 net.cpp:165] Memory required for data: 132481152
I0701 22:22:07.075745 18021 layer_factory.hpp:77] Creating layer inception_4e/relu_5x5
I0701 22:22:07.075752 18021 net.cpp:100] Creating Layer inception_4e/relu_5x5
I0701 22:22:07.075758 18021 net.cpp:434] inception_4e/relu_5x5 <- inception_4e/5x5
I0701 22:22:07.075775 18021 net.cpp:395] inception_4e/relu_5x5 -> inception_4e/5x5 (in-place)
I0701 22:22:07.075783 18021 net.cpp:150] Setting up inception_4e/relu_5x5
I0701 22:22:07.075788 18021 net.cpp:157] Top shape: 32 128 4 4 (65536)
I0701 22:22:07.075791 18021 net.cpp:165] Memory required for data: 132743296
I0701 22:22:07.075795 18021 layer_factory.hpp:77] Creating layer inception_4e/pool
I0701 22:22:07.075801 18021 net.cpp:100] Creating Layer inception_4e/pool
I0701 22:22:07.075805 18021 net.cpp:434] inception_4e/pool <- inception_4d/output_inception_4d/output_0_split_3
I0701 22:22:07.075812 18021 net.cpp:408] inception_4e/pool -> inception_4e/pool
I0701 22:22:07.075858 18021 net.cpp:150] Setting up inception_4e/pool
I0701 22:22:07.075866 18021 net.cpp:157] Top shape: 32 528 4 4 (270336)
I0701 22:22:07.075870 18021 net.cpp:165] Memory required for data: 133824640
I0701 22:22:07.075883 18021 layer_factory.hpp:77] Creating layer inception_4e/pool_proj
I0701 22:22:07.075891 18021 net.cpp:100] Creating Layer inception_4e/pool_proj
I0701 22:22:07.075896 18021 net.cpp:434] inception_4e/pool_proj <- inception_4e/pool
I0701 22:22:07.075902 18021 net.cpp:408] inception_4e/pool_proj -> inception_4e/pool_proj
I0701 22:22:07.076438 18021 net.cpp:150] Setting up inception_4e/pool_proj
I0701 22:22:07.076447 18021 net.cpp:157] Top shape: 32 128 4 4 (65536)
I0701 22:22:07.076450 18021 net.cpp:165] Memory required for data: 134086784
I0701 22:22:07.076457 18021 layer_factory.hpp:77] Creating layer inception_4e/relu_pool_proj
I0701 22:22:07.076462 18021 net.cpp:100] Creating Layer inception_4e/relu_pool_proj
I0701 22:22:07.076465 18021 net.cpp:434] inception_4e/relu_pool_proj <- inception_4e/pool_proj
I0701 22:22:07.076472 18021 net.cpp:395] inception_4e/relu_pool_proj -> inception_4e/pool_proj (in-place)
I0701 22:22:07.076478 18021 net.cpp:150] Setting up inception_4e/relu_pool_proj
I0701 22:22:07.076483 18021 net.cpp:157] Top shape: 32 128 4 4 (65536)
I0701 22:22:07.076486 18021 net.cpp:165] Memory required for data: 134348928
I0701 22:22:07.076489 18021 layer_factory.hpp:77] Creating layer inception_4e/output
I0701 22:22:07.076495 18021 net.cpp:100] Creating Layer inception_4e/output
I0701 22:22:07.076499 18021 net.cpp:434] inception_4e/output <- inception_4e/1x1
I0701 22:22:07.076503 18021 net.cpp:434] inception_4e/output <- inception_4e/3x3
I0701 22:22:07.076508 18021 net.cpp:434] inception_4e/output <- inception_4e/5x5
I0701 22:22:07.076511 18021 net.cpp:434] inception_4e/output <- inception_4e/pool_proj
I0701 22:22:07.076519 18021 net.cpp:408] inception_4e/output -> inception_4e/output
I0701 22:22:07.076566 18021 net.cpp:150] Setting up inception_4e/output
I0701 22:22:07.076591 18021 net.cpp:157] Top shape: 32 832 4 4 (425984)
I0701 22:22:07.076596 18021 net.cpp:165] Memory required for data: 136052864
I0701 22:22:07.076599 18021 layer_factory.hpp:77] Creating layer output
I0701 22:22:07.076609 18021 net.cpp:100] Creating Layer output
I0701 22:22:07.076613 18021 net.cpp:434] output <- inception_4e/output
I0701 22:22:07.076620 18021 net.cpp:408] output -> output
I0701 22:22:07.081806 18021 net.cpp:150] Setting up output
I0701 22:22:07.081842 18021 net.cpp:157] Top shape: 32 63 (2016)
I0701 22:22:07.081847 18021 net.cpp:165] Memory required for data: 136060928
I0701 22:22:07.081857 18021 layer_factory.hpp:77] Creating layer loss
I0701 22:22:07.081868 18021 net.cpp:100] Creating Layer loss
I0701 22:22:07.081874 18021 net.cpp:434] loss <- output
I0701 22:22:07.081881 18021 net.cpp:434] loss <- label
I0701 22:22:07.081887 18021 net.cpp:408] loss -> loss
I0701 22:22:07.081900 18021 layer_factory.hpp:77] Creating layer loss
…
I0701 22:22:07.083734 18021 solver.cpp:196] Creating test net (#0) specified by net file: script/inception.prototxt
I0701 22:22:07.083835 18021 net.cpp:322] The NetState phase (1) differed from the phase (0) specified by a rule in layer data
I0701 22:22:07.084313 18021 net.cpp:58] Initializing net from parameters: 
name: "ReID_Net"
state {
  phase: TEST
}
layer {
  name: "data"
  type: "Data"
  top: "data"
  top: "label"
  include {
    phase: TEST
  }
  transform_param {
    mean_value: 104
    mean_value: 117
    mean_value: 123
  }
  data_param {
    source: "./build/icdar2013_sub_classifier_val"
    batch_size: 32
    backend: LMDB
  }
}
layer {
  name: "conv1/7x7_s2"
  type: "Convolution"
  bottom: "data"
  top: "conv1/7x7_s2"
  param {
    lr_mult: 1
    decay_mult: 1
  }
  param {
    lr_mult: 2
    decay_mult: 0
  }
  convolution_param {
    num_output: 64
    pad: 3
    kernel_size: 7
    stride: 2
    weight_filler {
      type: "xavier"
      std: 0.1
    }
    bias_filler {
      type: "constant"
      value: 0.2
    }
  }
}
layer {
  name: "conv1/relu_7x7"
  type: "ReLU"
  bottom: "conv1/7x7_s2"
  top: "conv1/7x7_s2"
}
layer {
  name: "pool1/3x3_s2"
  type: "Pooling"
  bottom: "conv1/7x7_s2"
  top: "pool1/3x3_s2"
  pooling_param {
    pool: MAX
    kernel_size: 3
    stride: 2
  }
}
layer {
  name: "pool1/norm1"
  type: "LRN"
  bottom: "pool1/3x3_s2"
  top: "pool1/norm1"
  lrn_param {
    local_size: 5
    alpha: 0.0001
    beta: 0.75
  }
}
layer {
  name: "conv2/3x3_reduce"
  type: "Convolution"
  bottom: "pool1/norm1"
  top: "conv2/3x3_reduce"
  param {
    lr_mult: 1
    decay_mult: 1
  }
  param {
    lr_mult: 2
    decay_mult: 0
  }
  convolution_param {
    num_output: 64
    kernel_size: 1
    weight_filler {
      type: "xavier"
      std: 0.1
    }
    bias_filler {
      type: "constant"
      value: 0.2
    }
  }
}
layer {
  name: "conv2/relu_3x3_reduce"
  type: "ReLU"
  bottom: "conv2/3x3_reduce"
  top: "conv2/3x3_reduce"
}
layer {
  name: "conv2/3x3"
  type: "Convolution"
  bottom: "conv2/3x3_reduce"
  top: "conv2/3x3"
  param {
    lr_mult: 1
    decay_mult: 1
  }
  param {
    lr_mult: 2
    decay_mult: 0
  }
  convolution_param {
    num_output: 192
    pad: 1
    kernel_size: 3
    weight_filler {
      type: "xavier"
      std: 0.03
    }
    bias_filler {
      type: "constant"
      value: 0.2
    }
  }
}
layer {
  name: "conv2/relu_3x3"
  type: "ReLU"
  bottom: "conv2/3x3"
  top: "conv2/3x3"
}
layer {
  name: "conv2/norm2"
  type: "LRN"
  bottom: "conv2/3x3"
  top: "conv2/norm2"
  lrn_param {
    local_size: 5
    alpha: 0.0001
    beta: 0.75
  }
}
layer {
  name: "pool2/3x3_s2"
  type: "Pooling"
  bottom: "conv2/norm2"
  top: "pool2/3x3_s2"
  pooling_param {
    pool: MAX
    kernel_size: 3
    stride: 2
  }
}
layer {
  name: "inception_3a/1x1"
  type: "Convolution"
  bottom: "pool2/3x3_s2"
  top: "inception_3a/1x1"
  param {
    lr_mult: 1
    decay_mult: 1
  }
  param {
    lr_mult: 2
    decay_mult: 0
  }
  convolution_param {
    num_output: 64
    kernel_size: 1
    weight_filler {
      type: "xavier"
      std: 0.03
    }
    bias_filler {
      type: "constant"
      value: 0.2
    }
  }
}
layer {
  name: "inception_3a/relu_1x1"
  type: "ReLU"
  bottom: "inception_3a/1x1"
  top: "inception_3a/1x1"
}
layer {
  name: "inception_3a/3x3_reduce"
  type: "Convolution"
  bottom: "pool2/3x3_s2"
  top: "inception_3a/3x3_reduce"
  param {
    lr_mult: 1
    decay_mult: 1
  }
  param {
    lr_mult: 2
    decay_mult: 0
  }
  convolution_param {
    num_output: 96
    kernel_size: 1
    weight_filler {
      type: "xavier"
      std: 0.09
    }
    bias_filler {
      type: "constant"
      value: 0.2
    }
  }
}
layer {
  name: "inception_3a/relu_3x3_reduce"
  type: "ReLU"
  bottom: "inception_3a/3x3_reduce"
  top: "inception_3a/3x3_reduce"
}
layer {
  name: "inception_3a/3x3"
  type: "Convolution"
  bottom: "inception_3a/3x3_reduce"
  top: "inception_3a/3x3"
  param {
    lr_mult: 1
    decay_mult: 1
  }
  param {
    lr_mult: 2
    decay_mult: 0
  }
  convolution_param {
    num_output: 128
    pad: 1
    kernel_size: 3
    weight_filler {
      type: "xavier"
      std: 0.03
    }
    bias_filler {
      type: "constant"
      value: 0.2
    }
  }
}
layer {
  name: "inception_3a/relu_3x3"
  type: "ReLU"
  bottom: "inception_3a/3x3"
  top: "inception_3a/3x3"
}
layer {
  name: "inception_3a/5x5_reduce"
  type: "Convolution"
  bottom: "pool2/3x3_s2"
  top: "inception_3a/5x5_reduce"
  param {
    lr_mult: 1
    decay_mult: 1
  }
  param {
    lr_mult: 2
    decay_mult: 0
  }
  convolution_param {
    num_output: 16
    kernel_size: 1
    weight_filler {
      type: "xavier"
      std: 0.2
    }
    bias_filler {
      type: "constant"
      value: 0.2
    }
  }
}
layer {
  name: "inception_3a/relu_5x5_reduce"
  type: "ReLU"
  bottom: "inception_3a/5x5_reduce"
  top: "inception_3a/5x5_reduce"
}
layer {
  name: "inception_3a/5x5"
  type: "Convolution"
  bottom: "inception_3a/5x5_reduce"
  top: "inception_3a/5x5"
  param {
    lr_mult: 1
    decay_mult: 1
  }
  param {
    lr_mult: 2
    decay_mult: 0
  }
  convolution_param {
    num_output: 32
    pad: 2
    kernel_size: 5
    weight_filler {
      type: "xavier"
      std: 0.03
    }
    bias_filler {
      type: "constant"
      value: 0.2
    }
  }
}
layer {
  name: "inception_3a/relu_5x5"
  type: "ReLU"
  bottom: "inception_3a/5x5"
  top: "inception_3a/5x5"
}
layer {
  name: "inception_3a/pool"
  type: "Pooling"
  bottom: "pool2/3x3_s2"
  top: "inception_3a/pool"
  pooling_param {
    pool: MAX
    kernel_size: 3
    stride: 1
    pad: 1
  }
}
layer {
  name: "inception_3a/pool_proj"
  type: "Convolution"
  bottom: "inception_3a/pool"
  top: "inception_3a/pool_proj"
  param {
    lr_mult: 1
    decay_mult: 1
  }
  param {
    lr_mult: 2
    decay_mult: 0
  }
  convolution_param {
    num_output: 32
    kernel_size: 1
    weight_filler {
      type: "xavier"
      std: 0.1
    }
    bias_filler {
      type: "constant"
      value: 0.2
    }
  }
}
layer {
  name: "inception_3a/relu_pool_proj"
  type: "ReLU"
  bottom: "inception_3a/pool_proj"
  top: "inception_3a/pool_proj"
}
layer {
  name: "inception_3a/output"
  type: "Concat"
  bottom: "inception_3a/1x1"
  bottom: "inception_3a/3x3"
  bottom: "inception_3a/5x5"
  bottom: "inception_3a/pool_proj"
  top: "inception_3a/output"
}
layer {
  name: "inception_3b/1x1"
  type: "Convolution"
  bottom: "inception_3a/output"
  top: "inception_3b/1x1"
  param {
    lr_mult: 1
    decay_mult: 1
  }
  param {
    lr_mult: 2
    decay_mult: 0
  }
  convolution_param {
    num_output: 128
    kernel_size: 1
    weight_filler {
      type: "xavier"
      std: 0.03
    }
    bias_filler {
      type: "constant"
      value: 0.2
    }
  }
}
layer {
  name: "inception_3b/relu_1x1"
  type: "ReLU"
  bottom: "inception_3b/1x1"
  top: "inception_3b/1x1"
}
layer {
  name: "inception_3b/3x3_reduce"
  type: "Convolution"
  bottom: "inception_3a/output"
  top: "inception_3b/3x3_reduce"
  param {
    lr_mult: 1
    decay_mult: 1
  }
  param {
    lr_mult: 2
    decay_mult: 0
  }
  convolution_param {
    num_output: 128
    kernel_size: 1
    weight_filler {
      type: "xavier"
      std: 0.09
    }
    bias_filler {
      type: "constant"
      value: 0.2
    }
  }
}
layer {
  name: "inception_3b/relu_3x3_reduce"
  type: "ReLU"
  bottom: "inception_3b/3x3_reduce"
  top: "inception_3b/3x3_reduce"
}
layer {
  name: "inception_3b/3x3"
  type: "Convolution"
  bottom: "inception_3b/3x3_reduce"
  top: "inception_3b/3x3"
  param {
    lr_mult: 1
    decay_mult: 1
  }
  param {
    lr_mult: 2
    decay_mult: 0
  }
  convolution_param {
    num_output: 192
    pad: 1
    kernel_size: 3
    weight_filler {
      type: "xavier"
      std: 0.03
    }
    bias_filler {
      type: "constant"
      value: 0.2
    }
  }
}
layer {
  name: "inception_3b/relu_3x3"
  type: "ReLU"
  bottom: "inception_3b/3x3"
  top: "inception_3b/3x3"
}
layer {
  name: "inception_3b/5x5_reduce"
  type: "Convolution"
  bottom: "inception_3a/output"
  top: "inception_3b/5x5_reduce"
  param {
    lr_mult: 1
    decay_mult: 1
  }
  param {
    lr_mult: 2
    decay_mult: 0
  }
  convolution_param {
    num_output: 32
    kernel_size: 1
    weight_filler {
      type: "xavier"
      std: 0.2
    }
    bias_filler {
      type: "constant"
      value: 0.2
    }
  }
}
layer {
  name: "inception_3b/relu_5x5_reduce"
  type: "ReLU"
  bottom: "inception_3b/5x5_reduce"
  top: "inception_3b/5x5_reduce"
}
layer {
  name: "inception_3b/5x5"
  type: "Convolution"
  bottom: "inception_3b/5x5_reduce"
  top: "inception_3b/5x5"
  param {
    lr_mult: 1
    decay_mult: 1
  }
  param {
    lr_mult: 2
    decay_mult: 0
  }
  convolution_param {
    num_output: 96
    pad: 2
    kernel_size: 5
    weight_filler {
      type: "xavier"
      std: 0.03
    }
    bias_filler {
      type: "constant"
      value: 0.2
    }
  }
}
layer {
  name: "inception_3b/relu_5x5"
  type: "ReLU"
  bottom: "inception_3b/5x5"
  top: "inception_3b/5x5"
}
layer {
  name: "inception_3b/pool"
  type: "Pooling"
  bottom: "inception_3a/output"
  top: "inception_3b/pool"
  pooling_param {
    pool: MAX
    kernel_size: 3
    stride: 1
    pad: 1
  }
}
layer {
  name: "inception_3b/pool_proj"
  type: "Convolution"
  bottom: "inception_3b/pool"
  top: "inception_3b/pool_proj"
  param {
    lr_mult: 1
    decay_mult: 1
  }
  param {
    lr_mult: 2
    decay_mult: 0
  }
  convolution_param {
    num_output: 64
    kernel_size: 1
    weight_filler {
      type: "xavier"
      std: 0.1
    }
    bias_filler {
      type: "constant"
      value: 0.2
    }
  }
}
layer {
  name: "inception_3b/relu_pool_proj"
  type: "ReLU"
  bottom: "inception_3b/pool_proj"
  top: "inception_3b/pool_proj"
}
layer {
  name: "inception_3b/output"
  type: "Concat"
  bottom: "inception_3b/1x1"
  bottom: "inception_3b/3x3"
  bottom: "inception_3b/5x5"
  bottom: "inception_3b/pool_proj"
  top: "inception_3b/output"
}
layer {
  name: "pool3/3x3_s2"
  type: "Pooling"
  bottom: "inception_3b/output"
  top: "pool3/3x3_s2"
  pooling_param {
    pool: MAX
    kernel_size: 3
    stride: 2
  }
}
layer {
  name: "inception_4a/1x1"
  type: "Convolution"
  bottom: "pool3/3x3_s2"
  top: "inception_4a/1x1"
  param {
    lr_mult: 1
    decay_mult: 1
  }
  param {
    lr_mult: 2
    decay_mult: 0
  }
  convolution_param {
    num_output: 192
    kernel_size: 1
    weight_filler {
      type: "xavier"
      std: 0.03
    }
    bias_filler {
      type: "constant"
      value: 0.2
    }
  }
}
layer {
  name: "inception_4a/relu_1x1"
  type: "ReLU"
  bottom: "inception_4a/1x1"
  top: "inception_4a/1x1"
}
layer {
  name: "inception_4a/3x3_reduce"
  type: "Convolution"
  bottom: "pool3/3x3_s2"
  top: "inception_4a/3x3_reduce"
  param {
    lr_mult: 1
    decay_mult: 1
  }
  param {
    lr_mult: 2
    decay_mult: 0
  }
  convolution_param {
    num_output: 96
    kernel_size: 1
    weight_filler {
      type: "xavier"
      std: 0.09
    }
    bias_filler {
      type: "constant"
      value: 0.2
    }
  }
}
layer {
  name: "inception_4a/relu_3x3_reduce"
  type: "ReLU"
  bottom: "inception_4a/3x3_reduce"
  top: "inception_4a/3x3_reduce"
}
layer {
  name: "inception_4a/3x3"
  type: "Convolution"
  bottom: "inception_4a/3x3_reduce"
  top: "inception_4a/3x3"
  param {
    lr_mult: 1
    decay_mult: 1
  }
  param {
    lr_mult: 2
    decay_mult: 0
  }
  convolution_param {
    num_output: 208
    pad: 1
    kernel_size: 3
    weight_filler {
      type: "xavier"
      std: 0.03
    }
    bias_filler {
      type: "constant"
      value: 0.2
    }
  }
}
layer {
  name: "inception_4a/relu_3x3"
  type: "ReLU"
  bottom: "inception_4a/3x3"
  top: "inception_4a/3x3"
}
layer {
  name: "inception_4a/5x5_reduce"
  type: "Convolution"
  bottom: "pool3/3x3_s2"
  top: "inception_4a/5x5_reduce"
  param {
    lr_mult: 1
    decay_mult: 1
  }
  param {
    lr_mult: 2
    decay_mult: 0
  }
  convolution_param {
    num_output: 16
    kernel_size: 1
    weight_filler {
      type: "xavier"
      std: 0.2
    }
    bias_filler {
      type: "constant"
      value: 0.2
    }
  }
}
layer {
  name: "inception_4a/relu_5x5_reduce"
  type: "ReLU"
  bottom: "inception_4a/5x5_reduce"
  top: "inception_4a/5x5_reduce"
}
layer {
  name: "inception_4a/5x5"
  type: "Convolution"
  bottom: "inception_4a/5x5_reduce"
  top: "inception_4a/5x5"
  param {
    lr_mult: 1
    decay_mult: 1
  }
  param {
    lr_mult: 2
    decay_mult: 0
  }
  convolution_param {
    num_output: 48
    pad: 2
    kernel_size: 5
    weight_filler {
      type: "xavier"
      std: 0.03
    }
    bias_filler {
      type: "constant"
      value: 0.2
    }
  }
}
layer {
  name: "inception_4a/relu_5x5"
  type: "ReLU"
  bottom: "inception_4a/5x5"
  top: "inception_4a/5x5"
}
layer {
  name: "inception_4a/pool"
  type: "Pooling"
  bottom: "pool3/3x3_s2"
  top: "inception_4a/pool"
  pooling_param {
    pool: MAX
    kernel_size: 3
    stride: 1
    pad: 1
  }
}
layer {
  name: "inception_4a/pool_proj"
  type: "Convolution"
  bottom: "inception_4a/pool"
  top: "inception_4a/pool_proj"
  param {
    lr_mult: 1
    decay_mult: 1
  }
  param {
    lr_mult: 2
    decay_mult: 0
  }
  convolution_param {
    num_output: 64
    kernel_size: 1
    weight_filler {
      type: "xavier"
      std: 0.1
    }
    bias_filler {
      type: "constant"
      value: 0.2
    }
  }
}
layer {
  name: "inception_4a/relu_pool_proj"
  type: "ReLU"
  bottom: "inception_4a/pool_proj"
  top: "inception_4a/pool_proj"
}
layer {
  name: "inception_4a/output"
  type: "Concat"
  bottom: "inception_4a/1x1"
  bottom: "inception_4a/3x3"
  bottom: "inception_4a/5x5"
  bottom: "inception_4a/pool_proj"
  top: "inception_4a/output"
}
layer {
  name: "inception_4b/1x1"
  type: "Convolution"
  bottom: "inception_4a/output"
  top: "inception_4b/1x1"
  param {
    lr_mult: 1
    decay_mult: 1
  }
  param {
    lr_mult: 2
    decay_mult: 0
  }
  convolution_param {
    num_output: 160
    kernel_size: 1
    weight_filler {
      type: "xavier"
      std: 0.03
    }
    bias_filler {
      type: "constant"
      value: 0.2
    }
  }
}
layer {
  name: "inception_4b/relu_1x1"
  type: "ReLU"
  bottom: "inception_4b/1x1"
  top: "inception_4b/1x1"
}
layer {
  name: "inception_4b/3x3_reduce"
  type: "Convolution"
  bottom: "inception_4a/output"
  top: "inception_4b/3x3_reduce"
  param {
    lr_mult: 1
    decay_mult: 1
  }
  param {
    lr_mult: 2
    decay_mult: 0
  }
  convolution_param {
    num_output: 112
    kernel_size: 1
    weight_filler {
      type: "xavier"
      std: 0.09
    }
    bias_filler {
      type: "constant"
      value: 0.2
    }
  }
}
layer {
  name: "inception_4b/relu_3x3_reduce"
  type: "ReLU"
  bottom: "inception_4b/3x3_reduce"
  top: "inception_4b/3x3_reduce"
}
layer {
  name: "inception_4b/3x3"
  type: "Convolution"
  bottom: "inception_4b/3x3_reduce"
  top: "inception_4b/3x3"
  param {
    lr_mult: 1
    decay_mult: 1
  }
  param {
    lr_mult: 2
    decay_mult: 0
  }
  convolution_param {
    num_output: 224
    pad: 1
    kernel_size: 3
    weight_filler {
      type: "xavier"
      std: 0.03
    }
    bias_filler {
      type: "constant"
      value: 0.2
    }
  }
}
layer {
  name: "inception_4b/relu_3x3"
  type: "ReLU"
  bottom: "inception_4b/3x3"
  top: "inception_4b/3x3"
}
layer {
  name: "inception_4b/5x5_reduce"
  type: "Convolution"
  bottom: "inception_4a/output"
  top: "inception_4b/5x5_reduce"
  param {
    lr_mult: 1
    decay_mult: 1
  }
  param {
    lr_mult: 2
    decay_mult: 0
  }
  convolution_param {
    num_output: 24
    kernel_size: 1
    weight_filler {
      type: "xavier"
      std: 0.2
    }
    bias_filler {
      type: "constant"
      value: 0.2
    }
  }
}
layer {
  name: "inception_4b/relu_5x5_reduce"
  type: "ReLU"
  bottom: "inception_4b/5x5_reduce"
  top: "inception_4b/5x5_reduce"
}
layer {
  name: "inception_4b/5x5"
  type: "Convolution"
  bottom: "inception_4b/5x5_reduce"
  top: "inception_4b/5x5"
  param {
    lr_mult: 1
    decay_mult: 1
  }
  param {
    lr_mult: 2
    decay_mult: 0
  }
  convolution_param {
    num_output: 64
    pad: 2
    kernel_size: 5
    weight_filler {
      type: "xavier"
      std: 0.03
    }
    bias_filler {
      type: "constant"
      value: 0.2
    }
  }
}
layer {
  name: "inception_4b/relu_5x5"
  type: "ReLU"
  bottom: "inception_4b/5x5"
  top: "inception_4b/5x5"
}
layer {
  name: "inception_4b/pool"
  type: "Pooling"
  bottom: "inception_4a/output"
  top: "inception_4b/pool"
  pooling_param {
    pool: MAX
    kernel_size: 3
    stride: 1
    pad: 1
  }
}
layer {
  name: "inception_4b/pool_proj"
  type: "Convolution"
  bottom: "inception_4b/pool"
  top: "inception_4b/pool_proj"
  param {
    lr_mult: 1
    decay_mult: 1
  }
  param {
    lr_mult: 2
    decay_mult: 0
  }
  convolution_param {
    num_output: 64
    kernel_size: 1
    weight_filler {
      type: "xavier"
      std: 0.1
    }
    bias_filler {
      type: "constant"
      value: 0.2
    }
  }
}
layer {
  name: "inception_4b/relu_pool_proj"
  type: "ReLU"
  bottom: "inception_4b/pool_proj"
  top: "inception_4b/pool_proj"
}
layer {
  name: "inception_4b/output"
  type: "Concat"
  bottom: "inception_4b/1x1"
  bottom: "inception_4b/3x3"
  bottom: "inception_4b/5x5"
  bottom: "inception_4b/pool_proj"
  top: "inception_4b/output"
}
layer {
  name: "inception_4c/1x1"
  type: "Convolution"
  bottom: "inception_4b/output"
  top: "inception_4c/1x1"
  param {
    lr_mult: 1
    decay_mult: 1
  }
  param {
    lr_mult: 2
    decay_mult: 0
  }
  convolution_param {
    num_output: 128
    kernel_size: 1
    weight_filler {
      type: "xavier"
      std: 0.03
    }
    bias_filler {
      type: "constant"
      value: 0.2
    }
  }
}
layer {
  name: "inception_4c/relu_1x1"
  type: "ReLU"
  bottom: "inception_4c/1x1"
  top: "inception_4c/1x1"
}
layer {
  name: "inception_4c/3x3_reduce"
  type: "Convolution"
  bottom: "inception_4b/output"
  top: "inception_4c/3x3_reduce"
  param {
    lr_mult: 1
    decay_mult: 1
  }
  param {
    lr_mult: 2
    decay_mult: 0
  }
  convolution_param {
    num_output: 128
    kernel_size: 1
    weight_filler {
      type: "xavier"
      std: 0.09
    }
    bias_filler {
      type: "constant"
      value: 0.2
    }
  }
}
layer {
  name: "inception_4c/relu_3x3_reduce"
  type: "ReLU"
  bottom: "inception_4c/3x3_reduce"
  top: "inception_4c/3x3_reduce"
}
layer {
  name: "inception_4c/3x3"
  type: "Convolution"
  bottom: "inception_4c/3x3_reduce"
  top: "inception_4c/3x3"
  param {
    lr_mult: 1
    decay_mult: 1
  }
  param {
    lr_mult: 2
    decay_mult: 0
  }
  convolution_param {
    num_output: 256
    pad: 1
    kernel_size: 3
    weight_filler {
      type: "xavier"
      std: 0.03
    }
    bias_filler {
      type: "constant"
      value: 0.2
    }
  }
}
layer {
  name: "inception_4c/relu_3x3"
  type: "ReLU"
  bottom: "inception_4c/3x3"
  top: "inception_4c/3x3"
}
layer {
  name: "inception_4c/5x5_reduce"
  type: "Convolution"
  bottom: "inception_4b/output"
  top: "inception_4c/5x5_reduce"
  param {
    lr_mult: 1
    decay_mult: 1
  }
  param {
    lr_mult: 2
    decay_mult: 0
  }
  convolution_param {
    num_output: 24
    kernel_size: 1
    weight_filler {
      type: "xavier"
      std: 0.2
    }
    bias_filler {
      type: "constant"
      value: 0.2
    }
  }
}
layer {
  name: "inception_4c/relu_5x5_reduce"
  type: "ReLU"
  bottom: "inception_4c/5x5_reduce"
  top: "inception_4c/5x5_reduce"
}
layer {
  name: "inception_4c/5x5"
  type: "Convolution"
  bottom: "inception_4c/5x5_reduce"
  top: "inception_4c/5x5"
  param {
    lr_mult: 1
    decay_mult: 1
  }
  param {
    lr_mult: 2
    decay_mult: 0
  }
  convolution_param {
    num_output: 64
    pad: 2
    kernel_size: 5
    weight_filler {
      type: "xavier"
      std: 0.03
    }
    bias_filler {
      type: "constant"
      value: 0.2
    }
  }
}
layer {
  name: "inception_4c/relu_5x5"
  type: "ReLU"
  bottom: "inception_4c/5x5"
  top: "inception_4c/5x5"
}
layer {
  name: "inception_4c/pool"
  type: "Pooling"
  bottom: "inception_4b/output"
  top: "inception_4c/pool"
  pooling_param {
    pool: MAX
    kernel_size: 3
    stride: 1
    pad: 1
  }
}
layer {
  name: "inception_4c/pool_proj"
  type: "Convolution"
  bottom: "inception_4c/pool"
  top: "inception_4c/pool_proj"
  param {
    lr_mult: 1
    decay_mult: 1
  }
  param {
    lr_mult: 2
    decay_mult: 0
  }
  convolution_param {
    num_output: 64
    kernel_size: 1
    weight_filler {
      type: "xavier"
      std: 0.1
    }
    bias_filler {
      type: "constant"
      value: 0.2
    }
  }
}
layer {
  name: "inception_4c/relu_pool_proj"
  type: "ReLU"
  bottom: "inception_4c/pool_proj"
  top: "inception_4c/pool_proj"
}
layer {
  name: "inception_4c/output"
  type: "Concat"
  bottom: "inception_4c/1x1"
  bottom: "inception_4c/3x3"
  bottom: "inception_4c/5x5"
  bottom: "inception_4c/pool_proj"
  top: "inception_4c/output"
}
layer {
  name: "inception_4d/1x1"
  type: "Convolution"
  bottom: "inception_4c/output"
  top: "inception_4d/1x1"
  param {
    lr_mult: 1
    decay_mult: 1
  }
  param {
    lr_mult: 2
    decay_mult: 0
  }
  convolution_param {
    num_output: 112
    kernel_size: 1
    weight_filler {
      type: "xavier"
      std: 0.03
    }
    bias_filler {
      type: "constant"
      value: 0.2
    }
  }
}
layer {
  name: "inception_4d/relu_1x1"
  type: "ReLU"
  bottom: "inception_4d/1x1"
  top: "inception_4d/1x1"
}
layer {
  name: "inception_4d/3x3_reduce"
  type: "Convolution"
  bottom: "inception_4c/output"
  top: "inception_4d/3x3_reduce"
  param {
    lr_mult: 1
    decay_mult: 1
  }
  param {
    lr_mult: 2
    decay_mult: 0
  }
  convolution_param {
    num_output: 144
    kernel_size: 1
    weight_filler {
      type: "xavier"
      std: 0.09
    }
    bias_filler {
      type: "constant"
      value: 0.2
    }
  }
}
layer {
  name: "inception_4d/relu_3x3_reduce"
  type: "ReLU"
  bottom: "inception_4d/3x3_reduce"
  top: "inception_4d/3x3_reduce"
}
layer {
  name: "inception_4d/3x3"
  type: "Convolution"
  bottom: "inception_4d/3x3_reduce"
  top: "inception_4d/3x3"
  param {
    lr_mult: 1
    decay_mult: 1
  }
  param {
    lr_mult: 2
    decay_mult: 0
  }
  convolution_param {
    num_output: 288
    pad: 1
    kernel_size: 3
    weight_filler {
      type: "xavier"
      std: 0.03
    }
    bias_filler {
      type: "constant"
      value: 0.2
    }
  }
}
layer {
  name: "inception_4d/relu_3x3"
  type: "ReLU"
  bottom: "inception_4d/3x3"
  top: "inception_4d/3x3"
}
layer {
  name: "inception_4d/5x5_reduce"
  type: "Convolution"
  bottom: "inception_4c/output"
  top: "inception_4d/5x5_reduce"
  param {
    lr_mult: 1
    decay_mult: 1
  }
  param {
    lr_mult: 2
    decay_mult: 0
  }
  convolution_param {
    num_output: 32
    kernel_size: 1
    weight_filler {
      type: "xavier"
      std: 0.2
    }
    bias_filler {
      type: "constant"
      value: 0.2
    }
  }
}
layer {
  name: "inception_4d/relu_5x5_reduce"
  type: "ReLU"
  bottom: "inception_4d/5x5_reduce"
  top: "inception_4d/5x5_reduce"
}
layer {
  name: "inception_4d/5x5"
  type: "Convolution"
  bottom: "inception_4d/5x5_reduce"
  top: "inception_4d/5x5"
  param {
    lr_mult: 1
    decay_mult: 1
  }
  param {
    lr_mult: 2
    decay_mult: 0
  }
  convolution_param {
    num_output: 64
    pad: 2
    kernel_size: 5
    weight_filler {
      type: "xavier"
      std: 0.03
    }
    bias_filler {
      type: "constant"
      value: 0.2
    }
  }
}
layer {
  name: "inception_4d/relu_5x5"
  type: "ReLU"
  bottom: "inception_4d/5x5"
  top: "inception_4d/5x5"
}
layer {
  name: "inception_4d/pool"
  type: "Pooling"
  bottom: "inception_4c/output"
  top: "inception_4d/pool"
  pooling_param {
    pool: MAX
    kernel_size: 3
    stride: 1
    pad: 1
  }
}
layer {
  name: "inception_4d/pool_proj"
  type: "Convolution"
  bottom: "inception_4d/pool"
  top: "inception_4d/pool_proj"
  param {
    lr_mult: 1
    decay_mult: 1
  }
  param {
    lr_mult: 2
    decay_mult: 0
  }
  convolution_param {
    num_output: 64
    kernel_size: 1
    weight_filler {
      type: "xavier"
      std: 0.1
    }
    bias_filler {
      type: "constant"
      value: 0.2
    }
  }
}
layer {
  name: "inception_4d/relu_pool_proj"
  type: "ReLU"
  bottom: "inception_4d/pool_proj"
  top: "inception_4d/pool_proj"
}
layer {
  name: "inception_4d/output"
  type: "Concat"
  bottom: "inception_4d/1x1"
  bottom: "inception_4d/3x3"
  bottom: "inception_4d/5x5"
  bottom: "inception_4d/pool_proj"
  top: "inception_4d/output"
}
layer {
  name: "inception_4e/1x1"
  type: "Convolution"
  bottom: "inception_4d/output"
  top: "inception_4e/1x1"
  param {
    lr_mult: 1
    decay_mult: 1
  }
  param {
    lr_mult: 2
    decay_mult: 0
  }
  convolution_param {
    num_output: 256
    kernel_size: 1
    weight_filler {
      type: "xavier"
      std: 0.03
    }
    bias_filler {
      type: "constant"
      value: 0.2
    }
  }
}
layer {
  name: "inception_4e/relu_1x1"
  type: "ReLU"
  bottom: "inception_4e/1x1"
  top: "inception_4e/1x1"
}
layer {
  name: "inception_4e/3x3_reduce"
  type: "Convolution"
  bottom: "inception_4d/output"
  top: "inception_4e/3x3_reduce"
  param {
    lr_mult: 1
    decay_mult: 1
  }
  param {
    lr_mult: 2
    decay_mult: 0
  }
  convolution_param {
    num_output: 160
    kernel_size: 1
    weight_filler {
      type: "xavier"
      std: 0.09
    }
    bias_filler {
      type: "constant"
      value: 0.2
    }
  }
}
layer {
  name: "inception_4e/relu_3x3_reduce"
  type: "ReLU"
  bottom: "inception_4e/3x3_reduce"
  top: "inception_4e/3x3_reduce"
}
layer {
  name: "inception_4e/3x3"
  type: "Convolution"
  bottom: "inception_4e/3x3_reduce"
  top: "inception_4e/3x3"
  param {
    lr_mult: 1
    decay_mult: 1
  }
  param {
    lr_mult: 2
    decay_mult: 0
  }
  convolution_param {
    num_output: 320
    pad: 1
    kernel_size: 3
    weight_filler {
      type: "xavier"
      std: 0.03
    }
    bias_filler {
      type: "constant"
      value: 0.2
    }
  }
}
layer {
  name: "inception_4e/relu_3x3"
  type: "ReLU"
  bottom: "inception_4e/3x3"
  top: "inception_4e/3x3"
}
layer {
  name: "inception_4e/5x5_reduce"
  type: "Convolution"
  bottom: "inception_4d/output"
  top: "inception_4e/5x5_reduce"
  param {
    lr_mult: 1
    decay_mult: 1
  }
  param {
    lr_mult: 2
    decay_mult: 0
  }
  convolution_param {
    num_output: 32
    kernel_size: 1
    weight_filler {
      type: "xavier"
      std: 0.2
    }
    bias_filler {
      type: "constant"
      value: 0.2
    }
  }
}
layer {
  name: "inception_4e/relu_5x5_reduce"
  type: "ReLU"
  bottom: "inception_4e/5x5_reduce"
  top: "inception_4e/5x5_reduce"
}
layer {
  name: "inception_4e/5x5"
  type: "Convolution"
  bottom: "inception_4e/5x5_reduce"
  top: "inception_4e/5x5"
  param {
    lr_mult: 1
    decay_mult: 1
  }
  param {
    lr_mult: 2
    decay_mult: 0
  }
  convolution_param {
    num_output: 128
    pad: 2
    kernel_size: 5
    weight_filler {
      type: "xavier"
      std: 0.03
    }
    bias_filler {
      type: "constant"
      value: 0.2
    }
  }
}
layer {
  name: "inception_4e/relu_5x5"
  type: "ReLU"
  bottom: "inception_4e/5x5"
  top: "inception_4e/5x5"
}
layer {
  name: "inception_4e/pool"
  type: "Pooling"
  bottom: "inception_4d/output"
  top: "inception_4e/pool"
  pooling_param {
    pool: MAX
    kernel_size: 3
    stride: 1
    pad: 1
  }
}
layer {
  name: "inception_4e/pool_proj"
  type: "Convolution"
  bottom: "inception_4e/pool"
  top: "inception_4e/pool_proj"
  param {
    lr_mult: 1
    decay_mult: 1
  }
  param {
    lr_mult: 2
    decay_mult: 0
  }
  convolution_param {
    num_output: 128
    kernel_size: 1
    weight_filler {
      type: "xavier"
      std: 0.1
    }
    bias_filler {
      type: "constant"
      value: 0.2
    }
  }
}
layer {
  name: "inception_4e/relu_pool_proj"
  type: "ReLU"
  bottom: "inception_4e/pool_proj"
  top: "inception_4e/pool_proj"
}
layer {
  name: "inception_4e/output"
  type: "Concat"
  bottom: "inception_4e/1x1"
  bottom: "inception_4e/3x3"
  bottom: "inception_4e/5x5"
  bottom: "inception_4e/pool_proj"
  top: "inception_4e/output"
}
layer {
  name: "output"
  type: "InnerProduct"
  bottom: "inception_4e/output"
  top: "output"
  param {
    lr_mult: 1
    decay_mult: 1
  }
  param {
    lr_mult: 2
    decay_mult: 0
  }
  inner_product_param {
    num_output: 63
    weight_filler {
      type: "xavier"
      std: 0.1
    }
    bias_filler {
      type: "constant"
      value: 0.2
    }
  }
}
layer {
  name: "loss"
  type: "SoftmaxWithLoss"
  bottom: "output"
  bottom: "label"
  top: "loss"
  loss_weight: 1
}
layer {
  name: "accuracy"
  type: "Accuracy"
  bottom: "output"
  bottom: "label"
  top: "accuracy"
  include {
    phase: TEST
  }
}
I0701 22:22:07.084727 18021 layer_factory.hpp:77] Creating layer data
I0701 22:22:07.084802 18021 net.cpp:100] Creating Layer data
I0701 22:22:07.084811 18021 net.cpp:408] data -> data
I0701 22:22:07.084820 18021 net.cpp:408] data -> label
I0701 22:22:07.085841 18032 db_lmdb.cpp:35] Opened lmdb ./build/icdar2013_sub_classifier_val
I0701 22:22:07.085952 18021 data_layer.cpp:41] output data size: 32,3,64,64
I0701 22:22:07.089445 18021 net.cpp:150] Setting up data
I0701 22:22:07.089478 18021 net.cpp:157] Top shape: 32 3 64 64 (393216)
I0701 22:22:07.089483 18021 net.cpp:157] Top shape: 32 (32)
I0701 22:22:07.089486 18021 net.cpp:165] Memory required for data: 1572992
I0701 22:22:07.089493 18021 layer_factory.hpp:77] Creating layer label_data_1_split
I0701 22:22:07.089503 18021 net.cpp:100] Creating Layer label_data_1_split
I0701 22:22:07.089507 18021 net.cpp:434] label_data_1_split <- label
I0701 22:22:07.089516 18021 net.cpp:408] label_data_1_split -> label_data_1_split_0
I0701 22:22:07.089525 18021 net.cpp:408] label_data_1_split -> label_data_1_split_1
I0701 22:22:07.089576 18021 net.cpp:150] Setting up label_data_1_split
I0701 22:22:07.089581 18021 net.cpp:157] Top shape: 32 (32)
I0701 22:22:07.089586 18021 net.cpp:157] Top shape: 32 (32)
I0701 22:22:07.089588 18021 net.cpp:165] Memory required for data: 1573248
I0701 22:22:07.089591 18021 layer_factory.hpp:77] Creating layer conv1/7x7_s2
I0701 22:22:07.089603 18021 net.cpp:100] Creating Layer conv1/7x7_s2
I0701 22:22:07.089607 18021 net.cpp:434] conv1/7x7_s2 <- data
I0701 22:22:07.089615 18021 net.cpp:408] conv1/7x7_s2 -> conv1/7x7_s2
I0701 22:22:07.089867 18021 net.cpp:150] Setting up conv1/7x7_s2
I0701 22:22:07.089875 18021 net.cpp:157] Top shape: 32 64 32 32 (2097152)
I0701 22:22:07.089879 18021 net.cpp:165] Memory required for data: 9961856
I0701 22:22:07.089889 18021 layer_factory.hpp:77] Creating layer conv1/relu_7x7
I0701 22:22:07.089893 18021 net.cpp:100] Creating Layer conv1/relu_7x7
I0701 22:22:07.089897 18021 net.cpp:434] conv1/relu_7x7 <- conv1/7x7_s2
I0701 22:22:07.089903 18021 net.cpp:395] conv1/relu_7x7 -> conv1/7x7_s2 (in-place)
I0701 22:22:07.089910 18021 net.cpp:150] Setting up conv1/relu_7x7
I0701 22:22:07.089913 18021 net.cpp:157] Top shape: 32 64 32 32 (2097152)
I0701 22:22:07.089917 18021 net.cpp:165] Memory required for data: 18350464
I0701 22:22:07.089920 18021 layer_factory.hpp:77] Creating layer pool1/3x3_s2
I0701 22:22:07.089927 18021 net.cpp:100] Creating Layer pool1/3x3_s2
I0701 22:22:07.089931 18021 net.cpp:434] pool1/3x3_s2 <- conv1/7x7_s2
I0701 22:22:07.089936 18021 net.cpp:408] pool1/3x3_s2 -> pool1/3x3_s2
I0701 22:22:07.089967 18021 net.cpp:150] Setting up pool1/3x3_s2
I0701 22:22:07.089974 18021 net.cpp:157] Top shape: 32 64 16 16 (524288)
I0701 22:22:07.089977 18021 net.cpp:165] Memory required for data: 20447616
I0701 22:22:07.089980 18021 layer_factory.hpp:77] Creating layer pool1/norm1
I0701 22:22:07.089987 18021 net.cpp:100] Creating Layer pool1/norm1
I0701 22:22:07.089990 18021 net.cpp:434] pool1/norm1 <- pool1/3x3_s2
I0701 22:22:07.089995 18021 net.cpp:408] pool1/norm1 -> pool1/norm1
I0701 22:22:07.090024 18021 net.cpp:150] Setting up pool1/norm1
I0701 22:22:07.090029 18021 net.cpp:157] Top shape: 32 64 16 16 (524288)
I0701 22:22:07.090032 18021 net.cpp:165] Memory required for data: 22544768
I0701 22:22:07.090036 18021 layer_factory.hpp:77] Creating layer conv2/3x3_reduce
I0701 22:22:07.090046 18021 net.cpp:100] Creating Layer conv2/3x3_reduce
I0701 22:22:07.090050 18021 net.cpp:434] conv2/3x3_reduce <- pool1/norm1
I0701 22:22:07.090055 18021 net.cpp:408] conv2/3x3_reduce -> conv2/3x3_reduce
I0701 22:22:07.090250 18021 net.cpp:150] Setting up conv2/3x3_reduce
I0701 22:22:07.090256 18021 net.cpp:157] Top shape: 32 64 16 16 (524288)
I0701 22:22:07.090260 18021 net.cpp:165] Memory required for data: 24641920
I0701 22:22:07.090272 18021 layer_factory.hpp:77] Creating layer conv2/relu_3x3_reduce
I0701 22:22:07.090286 18021 net.cpp:100] Creating Layer conv2/relu_3x3_reduce
I0701 22:22:07.090289 18021 net.cpp:434] conv2/relu_3x3_reduce <- conv2/3x3_reduce
I0701 22:22:07.090296 18021 net.cpp:395] conv2/relu_3x3_reduce -> conv2/3x3_reduce (in-place)
I0701 22:22:07.090301 18021 net.cpp:150] Setting up conv2/relu_3x3_reduce
I0701 22:22:07.090306 18021 net.cpp:157] Top shape: 32 64 16 16 (524288)
I0701 22:22:07.090309 18021 net.cpp:165] Memory required for data: 26739072
I0701 22:22:07.090312 18021 layer_factory.hpp:77] Creating layer conv2/3x3
I0701 22:22:07.090322 18021 net.cpp:100] Creating Layer conv2/3x3
I0701 22:22:07.090325 18021 net.cpp:434] conv2/3x3 <- conv2/3x3_reduce
I0701 22:22:07.090330 18021 net.cpp:408] conv2/3x3 -> conv2/3x3
I0701 22:22:07.091428 18021 net.cpp:150] Setting up conv2/3x3
I0701 22:22:07.091441 18021 net.cpp:157] Top shape: 32 192 16 16 (1572864)
I0701 22:22:07.091445 18021 net.cpp:165] Memory required for data: 33030528
I0701 22:22:07.091454 18021 layer_factory.hpp:77] Creating layer conv2/relu_3x3
I0701 22:22:07.091459 18021 net.cpp:100] Creating Layer conv2/relu_3x3
I0701 22:22:07.091464 18021 net.cpp:434] conv2/relu_3x3 <- conv2/3x3
I0701 22:22:07.091469 18021 net.cpp:395] conv2/relu_3x3 -> conv2/3x3 (in-place)
I0701 22:22:07.091475 18021 net.cpp:150] Setting up conv2/relu_3x3
I0701 22:22:07.091480 18021 net.cpp:157] Top shape: 32 192 16 16 (1572864)
I0701 22:22:07.091482 18021 net.cpp:165] Memory required for data: 39321984
I0701 22:22:07.091486 18021 layer_factory.hpp:77] Creating layer conv2/norm2
I0701 22:22:07.091492 18021 net.cpp:100] Creating Layer conv2/norm2
I0701 22:22:07.091496 18021 net.cpp:434] conv2/norm2 <- conv2/3x3
I0701 22:22:07.091500 18021 net.cpp:408] conv2/norm2 -> conv2/norm2
I0701 22:22:07.091529 18021 net.cpp:150] Setting up conv2/norm2
I0701 22:22:07.091536 18021 net.cpp:157] Top shape: 32 192 16 16 (1572864)
I0701 22:22:07.091539 18021 net.cpp:165] Memory required for data: 45613440
I0701 22:22:07.091542 18021 layer_factory.hpp:77] Creating layer pool2/3x3_s2
I0701 22:22:07.091547 18021 net.cpp:100] Creating Layer pool2/3x3_s2
I0701 22:22:07.091552 18021 net.cpp:434] pool2/3x3_s2 <- conv2/norm2
I0701 22:22:07.091557 18021 net.cpp:408] pool2/3x3_s2 -> pool2/3x3_s2
I0701 22:22:07.091584 18021 net.cpp:150] Setting up pool2/3x3_s2
I0701 22:22:07.091590 18021 net.cpp:157] Top shape: 32 192 8 8 (393216)
I0701 22:22:07.091593 18021 net.cpp:165] Memory required for data: 47186304
I0701 22:22:07.091596 18021 layer_factory.hpp:77] Creating layer pool2/3x3_s2_pool2/3x3_s2_0_split
I0701 22:22:07.091604 18021 net.cpp:100] Creating Layer pool2/3x3_s2_pool2/3x3_s2_0_split
I0701 22:22:07.091609 18021 net.cpp:434] pool2/3x3_s2_pool2/3x3_s2_0_split <- pool2/3x3_s2
I0701 22:22:07.091614 18021 net.cpp:408] pool2/3x3_s2_pool2/3x3_s2_0_split -> pool2/3x3_s2_pool2/3x3_s2_0_split_0
I0701 22:22:07.091621 18021 net.cpp:408] pool2/3x3_s2_pool2/3x3_s2_0_split -> pool2/3x3_s2_pool2/3x3_s2_0_split_1
I0701 22:22:07.091626 18021 net.cpp:408] pool2/3x3_s2_pool2/3x3_s2_0_split -> pool2/3x3_s2_pool2/3x3_s2_0_split_2
I0701 22:22:07.091632 18021 net.cpp:408] pool2/3x3_s2_pool2/3x3_s2_0_split -> pool2/3x3_s2_pool2/3x3_s2_0_split_3
I0701 22:22:07.091675 18021 net.cpp:150] Setting up pool2/3x3_s2_pool2/3x3_s2_0_split
I0701 22:22:07.091681 18021 net.cpp:157] Top shape: 32 192 8 8 (393216)
I0701 22:22:07.091686 18021 net.cpp:157] Top shape: 32 192 8 8 (393216)
I0701 22:22:07.091689 18021 net.cpp:157] Top shape: 32 192 8 8 (393216)
I0701 22:22:07.091693 18021 net.cpp:157] Top shape: 32 192 8 8 (393216)
I0701 22:22:07.091696 18021 net.cpp:165] Memory required for data: 53477760
I0701 22:22:07.091699 18021 layer_factory.hpp:77] Creating layer inception_3a/1x1
I0701 22:22:07.091707 18021 net.cpp:100] Creating Layer inception_3a/1x1
I0701 22:22:07.091711 18021 net.cpp:434] inception_3a/1x1 <- pool2/3x3_s2_pool2/3x3_s2_0_split_0
I0701 22:22:07.091717 18021 net.cpp:408] inception_3a/1x1 -> inception_3a/1x1
I0701 22:22:07.091975 18021 net.cpp:150] Setting up inception_3a/1x1
I0701 22:22:07.091989 18021 net.cpp:157] Top shape: 32 64 8 8 (131072)
I0701 22:22:07.091992 18021 net.cpp:165] Memory required for data: 54002048
I0701 22:22:07.091997 18021 layer_factory.hpp:77] Creating layer inception_3a/relu_1x1
I0701 22:22:07.092003 18021 net.cpp:100] Creating Layer inception_3a/relu_1x1
I0701 22:22:07.092006 18021 net.cpp:434] inception_3a/relu_1x1 <- inception_3a/1x1
I0701 22:22:07.092012 18021 net.cpp:395] inception_3a/relu_1x1 -> inception_3a/1x1 (in-place)
I0701 22:22:07.092018 18021 net.cpp:150] Setting up inception_3a/relu_1x1
I0701 22:22:07.092022 18021 net.cpp:157] Top shape: 32 64 8 8 (131072)
I0701 22:22:07.092026 18021 net.cpp:165] Memory required for data: 54526336
I0701 22:22:07.092030 18021 layer_factory.hpp:77] Creating layer inception_3a/3x3_reduce
I0701 22:22:07.092036 18021 net.cpp:100] Creating Layer inception_3a/3x3_reduce
I0701 22:22:07.092041 18021 net.cpp:434] inception_3a/3x3_reduce <- pool2/3x3_s2_pool2/3x3_s2_0_split_1
I0701 22:22:07.092047 18021 net.cpp:408] inception_3a/3x3_reduce -> inception_3a/3x3_reduce
I0701 22:22:07.092310 18021 net.cpp:150] Setting up inception_3a/3x3_reduce
I0701 22:22:07.092319 18021 net.cpp:157] Top shape: 32 96 8 8 (196608)
I0701 22:22:07.092321 18021 net.cpp:165] Memory required for data: 55312768
I0701 22:22:07.092330 18021 layer_factory.hpp:77] Creating layer inception_3a/relu_3x3_reduce
I0701 22:22:07.092339 18021 net.cpp:100] Creating Layer inception_3a/relu_3x3_reduce
I0701 22:22:07.092342 18021 net.cpp:434] inception_3a/relu_3x3_reduce <- inception_3a/3x3_reduce
I0701 22:22:07.092346 18021 net.cpp:395] inception_3a/relu_3x3_reduce -> inception_3a/3x3_reduce (in-place)
I0701 22:22:07.092352 18021 net.cpp:150] Setting up inception_3a/relu_3x3_reduce
I0701 22:22:07.092357 18021 net.cpp:157] Top shape: 32 96 8 8 (196608)
I0701 22:22:07.092360 18021 net.cpp:165] Memory required for data: 56099200
I0701 22:22:07.092363 18021 layer_factory.hpp:77] Creating layer inception_3a/3x3
I0701 22:22:07.092370 18021 net.cpp:100] Creating Layer inception_3a/3x3
I0701 22:22:07.092375 18021 net.cpp:434] inception_3a/3x3 <- inception_3a/3x3_reduce
I0701 22:22:07.092380 18021 net.cpp:408] inception_3a/3x3 -> inception_3a/3x3
I0701 22:22:07.093128 18021 net.cpp:150] Setting up inception_3a/3x3
I0701 22:22:07.093138 18021 net.cpp:157] Top shape: 32 128 8 8 (262144)
I0701 22:22:07.093142 18021 net.cpp:165] Memory required for data: 57147776
I0701 22:22:07.093147 18021 layer_factory.hpp:77] Creating layer inception_3a/relu_3x3
I0701 22:22:07.093153 18021 net.cpp:100] Creating Layer inception_3a/relu_3x3
I0701 22:22:07.093158 18021 net.cpp:434] inception_3a/relu_3x3 <- inception_3a/3x3
I0701 22:22:07.093163 18021 net.cpp:395] inception_3a/relu_3x3 -> inception_3a/3x3 (in-place)
I0701 22:22:07.093169 18021 net.cpp:150] Setting up inception_3a/relu_3x3
I0701 22:22:07.093173 18021 net.cpp:157] Top shape: 32 128 8 8 (262144)
I0701 22:22:07.093176 18021 net.cpp:165] Memory required for data: 58196352
I0701 22:22:07.093180 18021 layer_factory.hpp:77] Creating layer inception_3a/5x5_reduce
I0701 22:22:07.093189 18021 net.cpp:100] Creating Layer inception_3a/5x5_reduce
I0701 22:22:07.093192 18021 net.cpp:434] inception_3a/5x5_reduce <- pool2/3x3_s2_pool2/3x3_s2_0_split_2
I0701 22:22:07.093199 18021 net.cpp:408] inception_3a/5x5_reduce -> inception_3a/5x5_reduce
I0701 22:22:07.093396 18021 net.cpp:150] Setting up inception_3a/5x5_reduce
I0701 22:22:07.093403 18021 net.cpp:157] Top shape: 32 16 8 8 (32768)
I0701 22:22:07.093406 18021 net.cpp:165] Memory required for data: 58327424
I0701 22:22:07.093412 18021 layer_factory.hpp:77] Creating layer inception_3a/relu_5x5_reduce
I0701 22:22:07.093418 18021 net.cpp:100] Creating Layer inception_3a/relu_5x5_reduce
I0701 22:22:07.093421 18021 net.cpp:434] inception_3a/relu_5x5_reduce <- inception_3a/5x5_reduce
I0701 22:22:07.093427 18021 net.cpp:395] inception_3a/relu_5x5_reduce -> inception_3a/5x5_reduce (in-place)
I0701 22:22:07.093433 18021 net.cpp:150] Setting up inception_3a/relu_5x5_reduce
I0701 22:22:07.093444 18021 net.cpp:157] Top shape: 32 16 8 8 (32768)
I0701 22:22:07.093448 18021 net.cpp:165] Memory required for data: 58458496
I0701 22:22:07.093451 18021 layer_factory.hpp:77] Creating layer inception_3a/5x5
I0701 22:22:07.093458 18021 net.cpp:100] Creating Layer inception_3a/5x5
I0701 22:22:07.093461 18021 net.cpp:434] inception_3a/5x5 <- inception_3a/5x5_reduce
I0701 22:22:07.093468 18021 net.cpp:408] inception_3a/5x5 -> inception_3a/5x5
I0701 22:22:07.093704 18021 net.cpp:150] Setting up inception_3a/5x5
I0701 22:22:07.093711 18021 net.cpp:157] Top shape: 32 32 8 8 (65536)
I0701 22:22:07.093714 18021 net.cpp:165] Memory required for data: 58720640
I0701 22:22:07.093719 18021 layer_factory.hpp:77] Creating layer inception_3a/relu_5x5
I0701 22:22:07.093725 18021 net.cpp:100] Creating Layer inception_3a/relu_5x5
I0701 22:22:07.093729 18021 net.cpp:434] inception_3a/relu_5x5 <- inception_3a/5x5
I0701 22:22:07.093734 18021 net.cpp:395] inception_3a/relu_5x5 -> inception_3a/5x5 (in-place)
I0701 22:22:07.093739 18021 net.cpp:150] Setting up inception_3a/relu_5x5
I0701 22:22:07.093744 18021 net.cpp:157] Top shape: 32 32 8 8 (65536)
I0701 22:22:07.093747 18021 net.cpp:165] Memory required for data: 58982784
I0701 22:22:07.093750 18021 layer_factory.hpp:77] Creating layer inception_3a/pool
I0701 22:22:07.093756 18021 net.cpp:100] Creating Layer inception_3a/pool
I0701 22:22:07.093760 18021 net.cpp:434] inception_3a/pool <- pool2/3x3_s2_pool2/3x3_s2_0_split_3
I0701 22:22:07.093765 18021 net.cpp:408] inception_3a/pool -> inception_3a/pool
I0701 22:22:07.093794 18021 net.cpp:150] Setting up inception_3a/pool
I0701 22:22:07.093801 18021 net.cpp:157] Top shape: 32 192 8 8 (393216)
I0701 22:22:07.093803 18021 net.cpp:165] Memory required for data: 60555648
I0701 22:22:07.093806 18021 layer_factory.hpp:77] Creating layer inception_3a/pool_proj
I0701 22:22:07.093814 18021 net.cpp:100] Creating Layer inception_3a/pool_proj
I0701 22:22:07.093818 18021 net.cpp:434] inception_3a/pool_proj <- inception_3a/pool
I0701 22:22:07.093824 18021 net.cpp:408] inception_3a/pool_proj -> inception_3a/pool_proj
I0701 22:22:07.094022 18021 net.cpp:150] Setting up inception_3a/pool_proj
I0701 22:22:07.094029 18021 net.cpp:157] Top shape: 32 32 8 8 (65536)
I0701 22:22:07.094033 18021 net.cpp:165] Memory required for data: 60817792
I0701 22:22:07.094041 18021 layer_factory.hpp:77] Creating layer inception_3a/relu_pool_proj
I0701 22:22:07.094048 18021 net.cpp:100] Creating Layer inception_3a/relu_pool_proj
I0701 22:22:07.094051 18021 net.cpp:434] inception_3a/relu_pool_proj <- inception_3a/pool_proj
I0701 22:22:07.094056 18021 net.cpp:395] inception_3a/relu_pool_proj -> inception_3a/pool_proj (in-place)
I0701 22:22:07.094061 18021 net.cpp:150] Setting up inception_3a/relu_pool_proj
I0701 22:22:07.094065 18021 net.cpp:157] Top shape: 32 32 8 8 (65536)
I0701 22:22:07.094069 18021 net.cpp:165] Memory required for data: 61079936
I0701 22:22:07.094072 18021 layer_factory.hpp:77] Creating layer inception_3a/output
I0701 22:22:07.094077 18021 net.cpp:100] Creating Layer inception_3a/output
I0701 22:22:07.094080 18021 net.cpp:434] inception_3a/output <- inception_3a/1x1
I0701 22:22:07.094084 18021 net.cpp:434] inception_3a/output <- inception_3a/3x3
I0701 22:22:07.094089 18021 net.cpp:434] inception_3a/output <- inception_3a/5x5
I0701 22:22:07.094092 18021 net.cpp:434] inception_3a/output <- inception_3a/pool_proj
I0701 22:22:07.094099 18021 net.cpp:408] inception_3a/output -> inception_3a/output
I0701 22:22:07.094118 18021 net.cpp:150] Setting up inception_3a/output
I0701 22:22:07.094125 18021 net.cpp:157] Top shape: 32 256 8 8 (524288)
I0701 22:22:07.094127 18021 net.cpp:165] Memory required for data: 63177088
I0701 22:22:07.094130 18021 layer_factory.hpp:77] Creating layer inception_3a/output_inception_3a/output_0_split
I0701 22:22:07.094136 18021 net.cpp:100] Creating Layer inception_3a/output_inception_3a/output_0_split
I0701 22:22:07.094139 18021 net.cpp:434] inception_3a/output_inception_3a/output_0_split <- inception_3a/output
I0701 22:22:07.094151 18021 net.cpp:408] inception_3a/output_inception_3a/output_0_split -> inception_3a/output_inception_3a/output_0_split_0
I0701 22:22:07.094161 18021 net.cpp:408] inception_3a/output_inception_3a/output_0_split -> inception_3a/output_inception_3a/output_0_split_1
I0701 22:22:07.094167 18021 net.cpp:408] inception_3a/output_inception_3a/output_0_split -> inception_3a/output_inception_3a/output_0_split_2
I0701 22:22:07.094173 18021 net.cpp:408] inception_3a/output_inception_3a/output_0_split -> inception_3a/output_inception_3a/output_0_split_3
I0701 22:22:07.094218 18021 net.cpp:150] Setting up inception_3a/output_inception_3a/output_0_split
I0701 22:22:07.094223 18021 net.cpp:157] Top shape: 32 256 8 8 (524288)
I0701 22:22:07.094228 18021 net.cpp:157] Top shape: 32 256 8 8 (524288)
I0701 22:22:07.094231 18021 net.cpp:157] Top shape: 32 256 8 8 (524288)
I0701 22:22:07.094235 18021 net.cpp:157] Top shape: 32 256 8 8 (524288)
I0701 22:22:07.094238 18021 net.cpp:165] Memory required for data: 71565696
I0701 22:22:07.094241 18021 layer_factory.hpp:77] Creating layer inception_3b/1x1
I0701 22:22:07.094249 18021 net.cpp:100] Creating Layer inception_3b/1x1
I0701 22:22:07.094252 18021 net.cpp:434] inception_3b/1x1 <- inception_3a/output_inception_3a/output_0_split_0
I0701 22:22:07.094259 18021 net.cpp:408] inception_3b/1x1 -> inception_3b/1x1
I0701 22:22:07.094578 18021 net.cpp:150] Setting up inception_3b/1x1
I0701 22:22:07.094584 18021 net.cpp:157] Top shape: 32 128 8 8 (262144)
I0701 22:22:07.094588 18021 net.cpp:165] Memory required for data: 72614272
I0701 22:22:07.094594 18021 layer_factory.hpp:77] Creating layer inception_3b/relu_1x1
I0701 22:22:07.094599 18021 net.cpp:100] Creating Layer inception_3b/relu_1x1
I0701 22:22:07.094601 18021 net.cpp:434] inception_3b/relu_1x1 <- inception_3b/1x1
I0701 22:22:07.094609 18021 net.cpp:395] inception_3b/relu_1x1 -> inception_3b/1x1 (in-place)
I0701 22:22:07.094615 18021 net.cpp:150] Setting up inception_3b/relu_1x1
I0701 22:22:07.094619 18021 net.cpp:157] Top shape: 32 128 8 8 (262144)
I0701 22:22:07.094624 18021 net.cpp:165] Memory required for data: 73662848
…
I0701 22:22:07.098417 18021 net.cpp:165] Memory required for data: 88080768
I0701 22:22:07.098420 18021 layer_factory.hpp:77] Creating layer pool3/3x3_s2
I0701 22:22:07.098426 18021 net.cpp:100] Creating Layer pool3/3x3_s2
I0701 22:22:07.098430 18021 net.cpp:434] pool3/3x3_s2 <- inception_3b/output
I0701 22:22:07.098436 18021 net.cpp:408] pool3/3x3_s2 -> pool3/3x3_s2
I0701 22:22:07.098464 18021 net.cpp:150] Setting up pool3/3x3_s2
I0701 22:22:07.098470 18021 net.cpp:157] Top shape: 32 480 4 4 (245760)
I0701 22:22:07.098474 18021 net.cpp:165] Memory required for data: 89063808
I0701 22:22:07.098477 18021 layer_factory.hpp:77] Creating layer pool3/3x3_s2_pool3/3x3_s2_0_split
I0701 22:22:07.098484 18021 net.cpp:100] Creating Layer pool3/3x3_s2_pool3/3x3_s2_0_split
I0701 22:22:07.098486 18021 net.cpp:434] pool3/3x3_s2_pool3/3x3_s2_0_split <- pool3/3x3_s2
I0701 22:22:07.098491 18021 net.cpp:408] pool3/3x3_s2_pool3/3x3_s2_0_split -> pool3/3x3_s2_pool3/3x3_s2_0_split_0
I0701 22:22:07.098500 18021 net.cpp:408] pool3/3x3_s2_pool3/3x3_s2_0_split -> pool3/3x3_s2_pool3/3x3_s2_0_split_1
I0701 22:22:07.098505 18021 net.cpp:408] pool3/3x3_s2_pool3/3x3_s2_0_split -> pool3/3x3_s2_pool3/3x3_s2_0_split_2
I0701 22:22:07.098510 18021 net.cpp:408] pool3/3x3_s2_pool3/3x3_s2_0_split -> pool3/3x3_s2_pool3/3x3_s2_0_split_3
I0701 22:22:07.098554 18021 net.cpp:150] Setting up pool3/3x3_s2_pool3/3x3_s2_0_split
I0701 22:22:07.098559 18021 net.cpp:157] Top shape: 32 480 4 4 (245760)
I0701 22:22:07.098564 18021 net.cpp:157] Top shape: 32 480 4 4 (245760)
I0701 22:22:07.098568 18021 net.cpp:157] Top shape: 32 480 4 4 (245760)
I0701 22:22:07.098572 18021 net.cpp:157] Top shape: 32 480 4 4 (245760)
I0701 22:22:07.098575 18021 net.cpp:165] Memory required for data: 92995968
I0701 22:22:07.098578 18021 layer_factory.hpp:77] Creating layer inception_4a/1x1
I0701 22:22:07.098587 18021 net.cpp:100] Creating Layer inception_4a/1x1
I0701 22:22:07.098590 18021 net.cpp:434] inception_4a/1x1 <- pool3/3x3_s2_pool3/3x3_s2_0_split_0
I0701 22:22:07.098597 18021 net.cpp:408] inception_4a/1x1 -> inception_4a/1x1
I0701 22:22:07.099594 18021 net.cpp:150] Setting up inception_4a/1x1
I0701 22:22:07.099607 18021 net.cpp:157] Top shape: 32 192 4 4 (98304)
I0701 22:22:07.099611 18021 net.cpp:165] Memory required for data: 93389184
I0701 22:22:07.099617 18021 layer_factory.hpp:77] Creating layer inception_4a/relu_1x1
I0701 22:22:07.099623 18021 net.cpp:100] Creating Layer inception_4a/relu_1x1
I0701 22:22:07.099627 18021 net.cpp:434] inception_4a/relu_1x1 <- inception_4a/1x1
I0701 22:22:07.099633 18021 net.cpp:395] inception_4a/relu_1x1 -> inception_4a/1x1 (in-place)
I0701 22:22:07.099640 18021 net.cpp:150] Setting up inception_4a/relu_1x1
I0701 22:22:07.099644 18021 net.cpp:157] Top shape: 32 192 4 4 (98304)
I0701 22:22:07.099648 18021 net.cpp:165] Memory required for data: 93782400
I0701 22:22:07.099651 18021 layer_factory.hpp:77] Creating layer inception_4a/3x3_reduce
I0701 22:22:07.099658 18021 net.cpp:100] Creating Layer inception_4a/3x3_reduce
I0701 22:22:07.099665 18021 net.cpp:434] inception_4a/3x3_reduce <- pool3/3x3_s2_pool3/3x3_s2_0_split_1
I0701 22:22:07.099678 18021 net.cpp:408] inception_4a/3x3_reduce -> inception_4a/3x3_reduce
I0701 22:22:07.100076 18021 net.cpp:150] Setting up inception_4a/3x3_reduce
I0701 22:22:07.100085 18021 net.cpp:157] Top shape: 32 96 4 4 (49152)
I0701 22:22:07.100088 18021 net.cpp:165] Memory required for data: 93979008
I0701 22:22:07.100098 18021 layer_factory.hpp:77] Creating layer inception_4a/relu_3x3_reduce
I0701 22:22:07.100105 18021 net.cpp:100] Creating Layer inception_4a/relu_3x3_reduce
I0701 22:22:07.100108 18021 net.cpp:434] inception_4a/relu_3x3_reduce <- inception_4a/3x3_reduce
I0701 22:22:07.100113 18021 net.cpp:395] inception_4a/relu_3x3_reduce -> inception_4a/3x3_reduce (in-place)
I0701 22:22:07.100118 18021 net.cpp:150] Setting up inception_4a/relu_3x3_reduce
I0701 22:22:07.100123 18021 net.cpp:157] Top shape: 32 96 4 4 (49152)
I0701 22:22:07.100126 18021 net.cpp:165] Memory required for data: 94175616
I0701 22:22:07.100129 18021 layer_factory.hpp:77] Creating layer inception_4a/3x3
I0701 22:22:07.100137 18021 net.cpp:100] Creating Layer inception_4a/3x3
I0701 22:22:07.100142 18021 net.cpp:434] inception_4a/3x3 <- inception_4a/3x3_reduce
I0701 22:22:07.100147 18021 net.cpp:408] inception_4a/3x3 -> inception_4a/3x3
I0701 22:22:07.102505 18021 net.cpp:150] Setting up inception_4a/3x3
I0701 22:22:07.102530 18021 net.cpp:157] Top shape: 32 208 4 4 (106496)
I0701 22:22:07.102535 18021 net.cpp:165] Memory required for data: 94601600
I0701 22:22:07.102542 18021 layer_factory.hpp:77] Creating layer inception_4a/relu_3x3
I0701 22:22:07.102550 18021 net.cpp:100] Creating Layer inception_4a/relu_3x3
I0701 22:22:07.102555 18021 net.cpp:434] inception_4a/relu_3x3 <- inception_4a/3x3
I0701 22:22:07.102562 18021 net.cpp:395] inception_4a/relu_3x3 -> inception_4a/3x3 (in-place)
I0701 22:22:07.102571 18021 net.cpp:150] Setting up inception_4a/relu_3x3
I0701 22:22:07.102576 18021 net.cpp:157] Top shape: 32 208 4 4 (106496)
I0701 22:22:07.102578 18021 net.cpp:165] Memory required for data: 95027584
I0701 22:22:07.102581 18021 layer_factory.hpp:77] Creating layer inception_4a/5x5_reduce
I0701 22:22:07.102591 18021 net.cpp:100] Creating Layer inception_4a/5x5_reduce
I0701 22:22:07.102596 18021 net.cpp:434] inception_4a/5x5_reduce <- pool3/3x3_s2_pool3/3x3_s2_0_split_2
I0701 22:22:07.102602 18021 net.cpp:408] inception_4a/5x5_reduce -> inception_4a/5x5_reduce
I0701 22:22:07.102828 18021 net.cpp:150] Setting up inception_4a/5x5_reduce
I0701 22:22:07.102836 18021 net.cpp:157] Top shape: 32 16 4 4 (8192)
I0701 22:22:07.102840 18021 net.cpp:165] Memory required for data: 95060352
I0701 22:22:07.102845 18021 layer_factory.hpp:77] Creating layer inception_4a/relu_5x5_reduce
I0701 22:22:07.102850 18021 net.cpp:100] Creating Layer inception_4a/relu_5x5_reduce
I0701 22:22:07.102854 18021 net.cpp:434] inception_4a/relu_5x5_reduce <- inception_4a/5x5_reduce
I0701 22:22:07.102859 18021 net.cpp:395] inception_4a/relu_5x5_reduce -> inception_4a/5x5_reduce (in-place)
I0701 22:22:07.102864 18021 net.cpp:150] Setting up inception_4a/relu_5x5_reduce
I0701 22:22:07.102869 18021 net.cpp:157] Top shape: 32 16 4 4 (8192)
I0701 22:22:07.102872 18021 net.cpp:165] Memory required for data: 95093120
I0701 22:22:07.102875 18021 layer_factory.hpp:77] Creating layer inception_4a/5x5
I0701 22:22:07.102885 18021 net.cpp:100] Creating Layer inception_4a/5x5
I0701 22:22:07.102887 18021 net.cpp:434] inception_4a/5x5 <- inception_4a/5x5_reduce
I0701 22:22:07.102895 18021 net.cpp:408] inception_4a/5x5 -> inception_4a/5x5
I0701 22:22:07.103164 18021 net.cpp:150] Setting up inception_4a/5x5
I0701 22:22:07.103171 18021 net.cpp:157] Top shape: 32 48 4 4 (24576)
I0701 22:22:07.103175 18021 net.cpp:165] Memory required for data: 95191424
I0701 22:22:07.103180 18021 layer_factory.hpp:77] Creating layer inception_4a/relu_5x5
I0701 22:22:07.103185 18021 net.cpp:100] Creating Layer inception_4a/relu_5x5
I0701 22:22:07.103189 18021 net.cpp:434] inception_4a/relu_5x5 <- inception_4a/5x5
I0701 22:22:07.103207 18021 net.cpp:395] inception_4a/relu_5x5 -> inception_4a/5x5 (in-place)
I0701 22:22:07.103214 18021 net.cpp:150] Setting up inception_4a/relu_5x5
I0701 22:22:07.103219 18021 net.cpp:157] Top shape: 32 48 4 4 (24576)
I0701 22:22:07.103221 18021 net.cpp:165] Memory required for data: 95289728
I0701 22:22:07.103224 18021 layer_factory.hpp:77] Creating layer inception_4a/pool
I0701 22:22:07.103230 18021 net.cpp:100] Creating Layer inception_4a/pool
I0701 22:22:07.103235 18021 net.cpp:434] inception_4a/pool <- pool3/3x3_s2_pool3/3x3_s2_0_split_3
I0701 22:22:07.103240 18021 net.cpp:408] inception_4a/pool -> inception_4a/pool
I0701 22:22:07.103272 18021 net.cpp:150] Setting up inception_4a/pool
I0701 22:22:07.103278 18021 net.cpp:157] Top shape: 32 480 4 4 (245760)
I0701 22:22:07.103281 18021 net.cpp:165] Memory required for data: 96272768
I0701 22:22:07.103286 18021 layer_factory.hpp:77] Creating layer inception_4a/pool_proj
I0701 22:22:07.103294 18021 net.cpp:100] Creating Layer inception_4a/pool_proj
I0701 22:22:07.103298 18021 net.cpp:434] inception_4a/pool_proj <- inception_4a/pool
I0701 22:22:07.103303 18021 net.cpp:408] inception_4a/pool_proj -> inception_4a/pool_proj
I0701 22:22:07.103628 18021 net.cpp:150] Setting up inception_4a/pool_proj
I0701 22:22:07.103636 18021 net.cpp:157] Top shape: 32 64 4 4 (32768)
I0701 22:22:07.103639 18021 net.cpp:165] Memory required for data: 96403840
I0701 22:22:07.103646 18021 layer_factory.hpp:77] Creating layer inception_4a/relu_pool_proj
I0701 22:22:07.103651 18021 net.cpp:100] Creating Layer inception_4a/relu_pool_proj
I0701 22:22:07.103654 18021 net.cpp:434] inception_4a/relu_pool_proj <- inception_4a/pool_proj
I0701 22:22:07.103658 18021 net.cpp:395] inception_4a/relu_pool_proj -> inception_4a/pool_proj (in-place)
I0701 22:22:07.103664 18021 net.cpp:150] Setting up inception_4a/relu_pool_proj
I0701 22:22:07.103668 18021 net.cpp:157] Top shape: 32 64 4 4 (32768)
I0701 22:22:07.103672 18021 net.cpp:165] Memory required for data: 96534912
I0701 22:22:07.103674 18021 layer_factory.hpp:77] Creating layer inception_4a/output
I0701 22:22:07.103680 18021 net.cpp:100] Creating Layer inception_4a/output
I0701 22:22:07.103683 18021 net.cpp:434] inception_4a/output <- inception_4a/1x1
I0701 22:22:07.103688 18021 net.cpp:434] inception_4a/output <- inception_4a/3x3
I0701 22:22:07.103691 18021 net.cpp:434] inception_4a/output <- inception_4a/5x5
I0701 22:22:07.103695 18021 net.cpp:434] inception_4a/output <- inception_4a/pool_proj
I0701 22:22:07.103701 18021 net.cpp:408] inception_4a/output -> inception_4a/output
I0701 22:22:07.103723 18021 net.cpp:150] Setting up inception_4a/output
I0701 22:22:07.103729 18021 net.cpp:157] Top shape: 32 512 4 4 (262144)
I0701 22:22:07.103731 18021 net.cpp:165] Memory required for data: 97583488
I0701 22:22:07.103735 18021 layer_factory.hpp:77] Creating layer inception_4a/output_inception_4a/output_0_split
I0701 22:22:07.103741 18021 net.cpp:100] Creating Layer inception_4a/output_inception_4a/output_0_split
I0701 22:22:07.103744 18021 net.cpp:434] inception_4a/output_inception_4a/output_0_split <- inception_4a/output
I0701 22:22:07.103750 18021 net.cpp:408] inception_4a/output_inception_4a/output_0_split -> inception_4a/output_inception_4a/output_0_split_0
I0701 22:22:07.103757 18021 net.cpp:408] inception_4a/output_inception_4a/output_0_split -> inception_4a/output_inception_4a/output_0_split_1
I0701 22:22:07.103763 18021 net.cpp:408] inception_4a/output_inception_4a/output_0_split -> inception_4a/output_inception_4a/output_0_split_2
I0701 22:22:07.103770 18021 net.cpp:408] inception_4a/output_inception_4a/output_0_split -> inception_4a/output_inception_4a/output_0_split_3
I0701 22:22:07.103816 18021 net.cpp:150] Setting up inception_4a/output_inception_4a/output_0_split
I0701 22:22:07.103821 18021 net.cpp:157] Top shape: 32 512 4 4 (262144)
I0701 22:22:07.103826 18021 net.cpp:157] Top shape: 32 512 4 4 (262144)
I0701 22:22:07.103830 18021 net.cpp:157] Top shape: 32 512 4 4 (262144)
I0701 22:22:07.103837 18021 net.cpp:157] Top shape: 32 512 4 4 (262144)
I0701 22:22:07.103844 18021 net.cpp:165] Memory required for data: 101777792
I0701 22:22:07.103847 18021 layer_factory.hpp:77] Creating layer inception_4b/1x1
I0701 22:22:07.103854 18021 net.cpp:100] Creating Layer inception_4b/1x1
I0701 22:22:07.103858 18021 net.cpp:434] inception_4b/1x1 <- inception_4a/output_inception_4a/output_0_split_0
I0701 22:22:07.103865 18021 net.cpp:408] inception_4b/1x1 -> inception_4b/1x1
I0701 22:22:07.104475 18021 net.cpp:150] Setting up inception_4b/1x1
I0701 22:22:07.104483 18021 net.cpp:157] Top shape: 32 160 4 4 (81920)
I0701 22:22:07.104487 18021 net.cpp:165] Memory required for data: 102105472
I0701 22:22:07.104492 18021 layer_factory.hpp:77] Creating layer inception_4b/relu_1x1
I0701 22:22:07.104499 18021 net.cpp:100] Creating Layer inception_4b/relu_1x1
I0701 22:22:07.104503 18021 net.cpp:434] inception_4b/relu_1x1 <- inception_4b/1x1
I0701 22:22:07.104508 18021 net.cpp:395] inception_4b/relu_1x1 -> inception_4b/1x1 (in-place)
I0701 22:22:07.104514 18021 net.cpp:150] Setting up inception_4b/relu_1x1
I0701 22:22:07.104519 18021 net.cpp:157] Top shape: 32 160 4 4 (81920)
I0701 22:22:07.104522 18021 net.cpp:165] Memory required for data: 102433152
I0701 22:22:07.104543 18021 layer_factory.hpp:77] Creating layer inception_4b/3x3_reduce
I0701 22:22:07.104553 18021 net.cpp:100] Creating Layer inception_4b/3x3_reduce
I0701 22:22:07.104557 18021 net.cpp:434] inception_4b/3x3_reduce <- inception_4a/output_inception_4a/output_0_split_1
I0701 22:22:07.104575 18021 net.cpp:408] inception_4b/3x3_reduce -> inception_4b/3x3_reduce
I0701 22:22:07.105032 18021 net.cpp:150] Setting up inception_4b/3x3_reduce
I0701 22:22:07.105041 18021 net.cpp:157] Top shape: 32 112 4 4 (57344)
I0701 22:22:07.105043 18021 net.cpp:165] Memory required for data: 102662528
I0701 22:22:07.105048 18021 layer_factory.hpp:77] Creating layer inception_4b/relu_3x3_reduce
I0701 22:22:07.105053 18021 net.cpp:100] Creating Layer inception_4b/relu_3x3_reduce
I0701 22:22:07.105057 18021 net.cpp:434] inception_4b/relu_3x3_reduce <- inception_4b/3x3_reduce
I0701 22:22:07.105063 18021 net.cpp:395] inception_4b/relu_3x3_reduce -> inception_4b/3x3_reduce (in-place)
I0701 22:22:07.105068 18021 net.cpp:150] Setting up inception_4b/relu_3x3_reduce
I0701 22:22:07.105073 18021 net.cpp:157] Top shape: 32 112 4 4 (57344)
I0701 22:22:07.105077 18021 net.cpp:165] Memory required for data: 102891904
I0701 22:22:07.105079 18021 layer_factory.hpp:77] Creating layer inception_4b/3x3
I0701 22:22:07.105087 18021 net.cpp:100] Creating Layer inception_4b/3x3
I0701 22:22:07.105090 18021 net.cpp:434] inception_4b/3x3 <- inception_4b/3x3_reduce
I0701 22:22:07.105095 18021 net.cpp:408] inception_4b/3x3 -> inception_4b/3x3
I0701 22:22:07.106768 18021 net.cpp:150] Setting up inception_4b/3x3
I0701 22:22:07.106783 18021 net.cpp:157] Top shape: 32 224 4 4 (114688)
I0701 22:22:07.106787 18021 net.cpp:165] Memory required for data: 103350656
I0701 22:22:07.106793 18021 layer_factory.hpp:77] Creating layer inception_4b/relu_3x3
I0701 22:22:07.106812 18021 net.cpp:100] Creating Layer inception_4b/relu_3x3
I0701 22:22:07.106817 18021 net.cpp:434] inception_4b/relu_3x3 <- inception_4b/3x3
I0701 22:22:07.106822 18021 net.cpp:395] inception_4b/relu_3x3 -> inception_4b/3x3 (in-place)
I0701 22:22:07.106828 18021 net.cpp:150] Setting up inception_4b/relu_3x3
I0701 22:22:07.106833 18021 net.cpp:157] Top shape: 32 224 4 4 (114688)
I0701 22:22:07.106837 18021 net.cpp:165] Memory required for data: 103809408
I0701 22:22:07.106840 18021 layer_factory.hpp:77] Creating layer inception_4b/5x5_reduce
I0701 22:22:07.106848 18021 net.cpp:100] Creating Layer inception_4b/5x5_reduce
I0701 22:22:07.106851 18021 net.cpp:434] inception_4b/5x5_reduce <- inception_4a/output_inception_4a/output_0_split_2
I0701 22:22:07.106861 18021 net.cpp:408] inception_4b/5x5_reduce -> inception_4b/5x5_reduce
I0701 22:22:07.107110 18021 net.cpp:150] Setting up inception_4b/5x5_reduce
I0701 22:22:07.107116 18021 net.cpp:157] Top shape: 32 24 4 4 (12288)
I0701 22:22:07.107126 18021 net.cpp:165] Memory required for data: 103858560
I0701 22:22:07.107139 18021 layer_factory.hpp:77] Creating layer inception_4b/relu_5x5_reduce
I0701 22:22:07.107144 18021 net.cpp:100] Creating Layer inception_4b/relu_5x5_reduce
I0701 22:22:07.107148 18021 net.cpp:434] inception_4b/relu_5x5_reduce <- inception_4b/5x5_reduce
I0701 22:22:07.107153 18021 net.cpp:395] inception_4b/relu_5x5_reduce -> inception_4b/5x5_reduce (in-place)
I0701 22:22:07.107158 18021 net.cpp:150] Setting up inception_4b/relu_5x5_reduce
I0701 22:22:07.107163 18021 net.cpp:157] Top shape: 32 24 4 4 (12288)
I0701 22:22:07.107167 18021 net.cpp:165] Memory required for data: 103907712
I0701 22:22:07.107169 18021 layer_factory.hpp:77] Creating layer inception_4b/5x5
I0701 22:22:07.107177 18021 net.cpp:100] Creating Layer inception_4b/5x5
I0701 22:22:07.107182 18021 net.cpp:434] inception_4b/5x5 <- inception_4b/5x5_reduce
I0701 22:22:07.107187 18021 net.cpp:408] inception_4b/5x5 -> inception_4b/5x5
I0701 22:22:07.107550 18021 net.cpp:150] Setting up inception_4b/5x5
I0701 22:22:07.107558 18021 net.cpp:157] Top shape: 32 64 4 4 (32768)
I0701 22:22:07.107560 18021 net.cpp:165] Memory required for data: 104038784
I0701 22:22:07.107566 18021 layer_factory.hpp:77] Creating layer inception_4b/relu_5x5
I0701 22:22:07.107571 18021 net.cpp:100] Creating Layer inception_4b/relu_5x5
I0701 22:22:07.107575 18021 net.cpp:434] inception_4b/relu_5x5 <- inception_4b/5x5
I0701 22:22:07.107580 18021 net.cpp:395] inception_4b/relu_5x5 -> inception_4b/5x5 (in-place)
I0701 22:22:07.107585 18021 net.cpp:150] Setting up inception_4b/relu_5x5
I0701 22:22:07.107590 18021 net.cpp:157] Top shape: 32 64 4 4 (32768)
I0701 22:22:07.107594 18021 net.cpp:165] Memory required for data: 104169856
I0701 22:22:07.107596 18021 layer_factory.hpp:77] Creating layer inception_4b/pool
I0701 22:22:07.107604 18021 net.cpp:100] Creating Layer inception_4b/pool
I0701 22:22:07.107609 18021 net.cpp:434] inception_4b/pool <- inception_4a/output_inception_4a/output_0_split_3
I0701 22:22:07.107612 18021 net.cpp:408] inception_4b/pool -> inception_4b/pool
I0701 22:22:07.107645 18021 net.cpp:150] Setting up inception_4b/pool
I0701 22:22:07.107651 18021 net.cpp:157] Top shape: 32 512 4 4 (262144)
I0701 22:22:07.107655 18021 net.cpp:165] Memory required for data: 105218432
I0701 22:22:07.107657 18021 layer_factory.hpp:77] Creating layer inception_4b/pool_proj
I0701 22:22:07.107666 18021 net.cpp:100] Creating Layer inception_4b/pool_proj
I0701 22:22:07.107669 18021 net.cpp:434] inception_4b/pool_proj <- inception_4b/pool
I0701 22:22:07.107676 18021 net.cpp:408] inception_4b/pool_proj -> inception_4b/pool_proj
I0701 22:22:07.108005 18021 net.cpp:150] Setting up inception_4b/pool_proj
I0701 22:22:07.108011 18021 net.cpp:157] Top shape: 32 64 4 4 (32768)
I0701 22:22:07.108014 18021 net.cpp:165] Memory required for data: 105349504
I0701 22:22:07.108019 18021 layer_factory.hpp:77] Creating layer inception_4b/relu_pool_proj
I0701 22:22:07.108024 18021 net.cpp:100] Creating Layer inception_4b/relu_pool_proj
I0701 22:22:07.108028 18021 net.cpp:434] inception_4b/relu_pool_proj <- inception_4b/pool_proj
I0701 22:22:07.108033 18021 net.cpp:395] inception_4b/relu_pool_proj -> inception_4b/pool_proj (in-place)
I0701 22:22:07.108038 18021 net.cpp:150] Setting up inception_4b/relu_pool_proj
I0701 22:22:07.108042 18021 net.cpp:157] Top shape: 32 64 4 4 (32768)
I0701 22:22:07.108045 18021 net.cpp:165] Memory required for data: 105480576
I0701 22:22:07.108049 18021 layer_factory.hpp:77] Creating layer inception_4b/output
I0701 22:22:07.108055 18021 net.cpp:100] Creating Layer inception_4b/output
I0701 22:22:07.108059 18021 net.cpp:434] inception_4b/output <- inception_4b/1x1
I0701 22:22:07.108063 18021 net.cpp:434] inception_4b/output <- inception_4b/3x3
I0701 22:22:07.108067 18021 net.cpp:434] inception_4b/output <- inception_4b/5x5
I0701 22:22:07.108072 18021 net.cpp:434] inception_4b/output <- inception_4b/pool_proj
I0701 22:22:07.108075 18021 net.cpp:408] inception_4b/output -> inception_4b/output
I0701 22:22:07.108099 18021 net.cpp:150] Setting up inception_4b/output
I0701 22:22:07.108109 18021 net.cpp:157] Top shape: 32 512 4 4 (262144)
I0701 22:22:07.108114 18021 net.cpp:165] Memory required for data: 106529152
I0701 22:22:07.108116 18021 layer_factory.hpp:77] Creating layer inception_4b/output_inception_4b/output_0_split
I0701 22:22:07.108124 18021 net.cpp:100] Creating Layer inception_4b/output_inception_4b/output_0_split
I0701 22:22:07.108129 18021 net.cpp:434] inception_4b/output_inception_4b/output_0_split <- inception_4b/output
I0701 22:22:07.108134 18021 net.cpp:408] inception_4b/output_inception_4b/output_0_split -> inception_4b/output_inception_4b/output_0_split_0
I0701 22:22:07.108141 18021 net.cpp:408] inception_4b/output_inception_4b/output_0_split -> inception_4b/output_inception_4b/output_0_split_1
I0701 22:22:07.108146 18021 net.cpp:408] inception_4b/output_inception_4b/output_0_split -> inception_4b/output_inception_4b/output_0_split_2
I0701 22:22:07.108152 18021 net.cpp:408] inception_4b/output_inception_4b/output_0_split -> inception_4b/output_inception_4b/output_0_split_3
I0701 22:22:07.108198 18021 net.cpp:150] Setting up inception_4b/output_inception_4b/output_0_split
I0701 22:22:07.108203 18021 net.cpp:157] Top shape: 32 512 4 4 (262144)
I0701 22:22:07.108207 18021 net.cpp:157] Top shape: 32 512 4 4 (262144)
I0701 22:22:07.108211 18021 net.cpp:157] Top shape: 32 512 4 4 (262144)
I0701 22:22:07.108216 18021 net.cpp:157] Top shape: 32 512 4 4 (262144)
I0701 22:22:07.108218 18021 net.cpp:165] Memory required for data: 110723456
I0701 22:22:07.108222 18021 layer_factory.hpp:77] Creating layer inception_4c/1x1
I0701 22:22:07.108229 18021 net.cpp:100] Creating Layer inception_4c/1x1
I0701 22:22:07.108233 18021 net.cpp:434] inception_4c/1x1 <- inception_4b/output_inception_4b/output_0_split_0
I0701 22:22:07.108238 18021 net.cpp:408] inception_4c/1x1 -> inception_4c/1x1
I0701 22:22:07.109176 18021 net.cpp:150] Setting up inception_4c/1x1
I0701 22:22:07.109190 18021 net.cpp:157] Top shape: 32 128 4 4 (65536)
I0701 22:22:07.109194 18021 net.cpp:165] Memory required for data: 110985600
I0701 22:22:07.109200 18021 layer_factory.hpp:77] Creating layer inception_4c/relu_1x1
I0701 22:22:07.109206 18021 net.cpp:100] Creating Layer inception_4c/relu_1x1
I0701 22:22:07.109210 18021 net.cpp:434] inception_4c/relu_1x1 <- inception_4c/1x1
I0701 22:22:07.109216 18021 net.cpp:395] inception_4c/relu_1x1 -> inception_4c/1x1 (in-place)
I0701 22:22:07.109223 18021 net.cpp:150] Setting up inception_4c/relu_1x1
I0701 22:22:07.109228 18021 net.cpp:157] Top shape: 32 128 4 4 (65536)
I0701 22:22:07.109231 18021 net.cpp:165] Memory required for data: 111247744
I0701 22:22:07.109235 18021 layer_factory.hpp:77] Creating layer inception_4c/3x3_reduce
I0701 22:22:07.109242 18021 net.cpp:100] Creating Layer inception_4c/3x3_reduce
I0701 22:22:07.109246 18021 net.cpp:434] inception_4c/3x3_reduce <- inception_4b/output_inception_4b/output_0_split_1
I0701 22:22:07.109253 18021 net.cpp:408] inception_4c/3x3_reduce -> inception_4c/3x3_reduce
I0701 22:22:07.109735 18021 net.cpp:150] Setting up inception_4c/3x3_reduce
I0701 22:22:07.109743 18021 net.cpp:157] Top shape: 32 128 4 4 (65536)
I0701 22:22:07.109746 18021 net.cpp:165] Memory required for data: 111509888
I0701 22:22:07.109751 18021 layer_factory.hpp:77] Creating layer inception_4c/relu_3x3_reduce
I0701 22:22:07.109757 18021 net.cpp:100] Creating Layer inception_4c/relu_3x3_reduce
I0701 22:22:07.109761 18021 net.cpp:434] inception_4c/relu_3x3_reduce <- inception_4c/3x3_reduce
I0701 22:22:07.109766 18021 net.cpp:395] inception_4c/relu_3x3_reduce -> inception_4c/3x3_reduce (in-place)
I0701 22:22:07.109772 18021 net.cpp:150] Setting up inception_4c/relu_3x3_reduce
I0701 22:22:07.109776 18021 net.cpp:157] Top shape: 32 128 4 4 (65536)
I0701 22:22:07.109779 18021 net.cpp:165] Memory required for data: 111772032
I0701 22:22:07.109783 18021 layer_factory.hpp:77] Creating layer inception_4c/3x3
I0701 22:22:07.109791 18021 net.cpp:100] Creating Layer inception_4c/3x3
I0701 22:22:07.109797 18021 net.cpp:434] inception_4c/3x3 <- inception_4c/3x3_reduce
I0701 22:22:07.109809 18021 net.cpp:408] inception_4c/3x3 -> inception_4c/3x3
I0701 22:22:07.111748 18021 net.cpp:150] Setting up inception_4c/3x3
I0701 22:22:07.111763 18021 net.cpp:157] Top shape: 32 256 4 4 (131072)
I0701 22:22:07.111766 18021 net.cpp:165] Memory required for data: 112296320
I0701 22:22:07.111773 18021 layer_factory.hpp:77] Creating layer inception_4c/relu_3x3
I0701 22:22:07.111779 18021 net.cpp:100] Creating Layer inception_4c/relu_3x3
I0701 22:22:07.111783 18021 net.cpp:434] inception_4c/relu_3x3 <- inception_4c/3x3
I0701 22:22:07.111790 18021 net.cpp:395] inception_4c/relu_3x3 -> inception_4c/3x3 (in-place)
I0701 22:22:07.111796 18021 net.cpp:150] Setting up inception_4c/relu_3x3
I0701 22:22:07.111801 18021 net.cpp:157] Top shape: 32 256 4 4 (131072)
I0701 22:22:07.111804 18021 net.cpp:165] Memory required for data: 112820608
I0701 22:22:07.111809 18021 layer_factory.hpp:77] Creating layer inception_4c/5x5_reduce
I0701 22:22:07.111815 18021 net.cpp:100] Creating Layer inception_4c/5x5_reduce
I0701 22:22:07.111819 18021 net.cpp:434] inception_4c/5x5_reduce <- inception_4b/output_inception_4b/output_0_split_2
I0701 22:22:07.111825 18021 net.cpp:408] inception_4c/5x5_reduce -> inception_4c/5x5_reduce
I0701 22:22:07.112076 18021 net.cpp:150] Setting up inception_4c/5x5_reduce
I0701 22:22:07.112083 18021 net.cpp:157] Top shape: 32 24 4 4 (12288)
I0701 22:22:07.112087 18021 net.cpp:165] Memory required for data: 112869760
I0701 22:22:07.112092 18021 layer_factory.hpp:77] Creating layer inception_4c/relu_5x5_reduce
I0701 22:22:07.112098 18021 net.cpp:100] Creating Layer inception_4c/relu_5x5_reduce
I0701 22:22:07.112102 18021 net.cpp:434] inception_4c/relu_5x5_reduce <- inception_4c/5x5_reduce
I0701 22:22:07.112107 18021 net.cpp:395] inception_4c/relu_5x5_reduce -> inception_4c/5x5_reduce (in-place)
I0701 22:22:07.112112 18021 net.cpp:150] Setting up inception_4c/relu_5x5_reduce
I0701 22:22:07.112118 18021 net.cpp:157] Top shape: 32 24 4 4 (12288)
I0701 22:22:07.112120 18021 net.cpp:165] Memory required for data: 112918912
I0701 22:22:07.112123 18021 layer_factory.hpp:77] Creating layer inception_4c/5x5
I0701 22:22:07.112131 18021 net.cpp:100] Creating Layer inception_4c/5x5
I0701 22:22:07.112134 18021 net.cpp:434] inception_4c/5x5 <- inception_4c/5x5_reduce
I0701 22:22:07.112140 18021 net.cpp:408] inception_4c/5x5 -> inception_4c/5x5
I0701 22:22:07.112509 18021 net.cpp:150] Setting up inception_4c/5x5
I0701 22:22:07.112516 18021 net.cpp:157] Top shape: 32 64 4 4 (32768)
I0701 22:22:07.112520 18021 net.cpp:165] Memory required for data: 113049984
I0701 22:22:07.118511 18021 layer_factory.hpp:77] Creating layer inception_4c/relu_5x5
I0701 22:22:07.118542 18021 net.cpp:100] Creating Layer inception_4c/relu_5x5
I0701 22:22:07.118549 18021 net.cpp:434] inception_4c/relu_5x5 <- inception_4c/5x5
I0701 22:22:07.118556 18021 net.cpp:395] inception_4c/relu_5x5 -> inception_4c/5x5 (in-place)
I0701 22:22:07.118566 18021 net.cpp:150] Setting up inception_4c/relu_5x5
I0701 22:22:07.118572 18021 net.cpp:157] Top shape: 32 64 4 4 (32768)
I0701 22:22:07.118576 18021 net.cpp:165] Memory required for data: 113181056
I0701 22:22:07.118579 18021 layer_factory.hpp:77] Creating layer inception_4c/pool
I0701 22:22:07.118587 18021 net.cpp:100] Creating Layer inception_4c/pool
I0701 22:22:07.118592 18021 net.cpp:434] inception_4c/pool <- inception_4b/output_inception_4b/output_0_split_3
I0701 22:22:07.118597 18021 net.cpp:408] inception_4c/pool -> inception_4c/pool
I0701 22:22:07.118674 18021 net.cpp:150] Setting up inception_4c/pool
I0701 22:22:07.118681 18021 net.cpp:157] Top shape: 32 512 4 4 (262144)
I0701 22:22:07.118685 18021 net.cpp:165] Memory required for data: 114229632
I0701 22:22:07.118687 18021 layer_factory.hpp:77] Creating layer inception_4c/pool_proj
I0701 22:22:07.118698 18021 net.cpp:100] Creating Layer inception_4c/pool_proj
I0701 22:22:07.118702 18021 net.cpp:434] inception_4c/pool_proj <- inception_4c/pool
I0701 22:22:07.118708 18021 net.cpp:408] inception_4c/pool_proj -> inception_4c/pool_proj
I0701 22:22:07.119187 18021 net.cpp:150] Setting up inception_4c/pool_proj
I0701 22:22:07.119197 18021 net.cpp:157] Top shape: 32 64 4 4 (32768)
I0701 22:22:07.119211 18021 net.cpp:165] Memory required for data: 114360704
I0701 22:22:07.119226 18021 layer_factory.hpp:77] Creating layer inception_4c/relu_pool_proj
I0701 22:22:07.119233 18021 net.cpp:100] Creating Layer inception_4c/relu_pool_proj
I0701 22:22:07.119238 18021 net.cpp:434] inception_4c/relu_pool_proj <- inception_4c/pool_proj
I0701 22:22:07.119243 18021 net.cpp:395] inception_4c/relu_pool_proj -> inception_4c/pool_proj (in-place)
I0701 22:22:07.119258 18021 net.cpp:150] Setting up inception_4c/relu_pool_proj
I0701 22:22:07.119262 18021 net.cpp:157] Top shape: 32 64 4 4 (32768)
I0701 22:22:07.119266 18021 net.cpp:165] Memory required for data: 114491776
I0701 22:22:07.119269 18021 layer_factory.hpp:77] Creating layer inception_4c/output
I0701 22:22:07.119276 18021 net.cpp:100] Creating Layer inception_4c/output
I0701 22:22:07.119278 18021 net.cpp:434] inception_4c/output <- inception_4c/1x1
I0701 22:22:07.119282 18021 net.cpp:434] inception_4c/output <- inception_4c/3x3
I0701 22:22:07.119287 18021 net.cpp:434] inception_4c/output <- inception_4c/5x5
I0701 22:22:07.119290 18021 net.cpp:434] inception_4c/output <- inception_4c/pool_proj
I0701 22:22:07.119297 18021 net.cpp:408] inception_4c/output -> inception_4c/output
I0701 22:22:07.119320 18021 net.cpp:150] Setting up inception_4c/output
I0701 22:22:07.119326 18021 net.cpp:157] Top shape: 32 512 4 4 (262144)
I0701 22:22:07.119329 18021 net.cpp:165] Memory required for data: 115540352
I0701 22:22:07.119333 18021 layer_factory.hpp:77] Creating layer inception_4c/output_inception_4c/output_0_split
I0701 22:22:07.119338 18021 net.cpp:100] Creating Layer inception_4c/output_inception_4c/output_0_split
I0701 22:22:07.119343 18021 net.cpp:434] inception_4c/output_inception_4c/output_0_split <- inception_4c/output
I0701 22:22:07.119349 18021 net.cpp:408] inception_4c/output_inception_4c/output_0_split -> inception_4c/output_inception_4c/output_0_split_0
I0701 22:22:07.119355 18021 net.cpp:408] inception_4c/output_inception_4c/output_0_split -> inception_4c/output_inception_4c/output_0_split_1
I0701 22:22:07.119361 18021 net.cpp:408] inception_4c/output_inception_4c/output_0_split -> inception_4c/output_inception_4c/output_0_split_2
I0701 22:22:07.119369 18021 net.cpp:408] inception_4c/output_inception_4c/output_0_split -> inception_4c/output_inception_4c/output_0_split_3
I0701 22:22:07.119416 18021 net.cpp:150] Setting up inception_4c/output_inception_4c/output_0_split
I0701 22:22:07.119422 18021 net.cpp:157] Top shape: 32 512 4 4 (262144)
I0701 22:22:07.119426 18021 net.cpp:157] Top shape: 32 512 4 4 (262144)
I0701 22:22:07.119431 18021 net.cpp:157] Top shape: 32 512 4 4 (262144)
I0701 22:22:07.119434 18021 net.cpp:157] Top shape: 32 512 4 4 (262144)
I0701 22:22:07.119437 18021 net.cpp:165] Memory required for data: 119734656
I0701 22:22:07.119441 18021 layer_factory.hpp:77] Creating layer inception_4d/1x1
I0701 22:22:07.119449 18021 net.cpp:100] Creating Layer inception_4d/1x1
I0701 22:22:07.119453 18021 net.cpp:434] inception_4d/1x1 <- inception_4c/output_inception_4c/output_0_split_0
I0701 22:22:07.119459 18021 net.cpp:408] inception_4d/1x1 -> inception_4d/1x1
I0701 22:22:07.119905 18021 net.cpp:150] Setting up inception_4d/1x1
I0701 22:22:07.119912 18021 net.cpp:157] Top shape: 32 112 4 4 (57344)
I0701 22:22:07.119915 18021 net.cpp:165] Memory required for data: 119964032
I0701 22:22:07.119920 18021 layer_factory.hpp:77] Creating layer inception_4d/relu_1x1
I0701 22:22:07.119925 18021 net.cpp:100] Creating Layer inception_4d/relu_1x1
I0701 22:22:07.119930 18021 net.cpp:434] inception_4d/relu_1x1 <- inception_4d/1x1
I0701 22:22:07.119935 18021 net.cpp:395] inception_4d/relu_1x1 -> inception_4d/1x1 (in-place)
I0701 22:22:07.119941 18021 net.cpp:150] Setting up inception_4d/relu_1x1
I0701 22:22:07.119946 18021 net.cpp:157] Top shape: 32 112 4 4 (57344)
I0701 22:22:07.119951 18021 net.cpp:165] Memory required for data: 120193408
I0701 22:22:07.119959 18021 layer_factory.hpp:77] Creating layer inception_4d/3x3_reduce
I0701 22:22:07.119967 18021 net.cpp:100] Creating Layer inception_4d/3x3_reduce
I0701 22:22:07.119971 18021 net.cpp:434] inception_4d/3x3_reduce <- inception_4c/output_inception_4c/output_0_split_1
I0701 22:22:07.119978 18021 net.cpp:408] inception_4d/3x3_reduce -> inception_4d/3x3_reduce
I0701 22:22:07.120512 18021 net.cpp:150] Setting up inception_4d/3x3_reduce
I0701 22:22:07.120519 18021 net.cpp:157] Top shape: 32 144 4 4 (73728)
I0701 22:22:07.120522 18021 net.cpp:165] Memory required for data: 120488320
I0701 22:22:07.120549 18021 layer_factory.hpp:77] Creating layer inception_4d/relu_3x3_reduce
I0701 22:22:07.120556 18021 net.cpp:100] Creating Layer inception_4d/relu_3x3_reduce
I0701 22:22:07.120560 18021 net.cpp:434] inception_4d/relu_3x3_reduce <- inception_4d/3x3_reduce
I0701 22:22:07.120568 18021 net.cpp:395] inception_4d/relu_3x3_reduce -> inception_4d/3x3_reduce (in-place)
I0701 22:22:07.120582 18021 net.cpp:150] Setting up inception_4d/relu_3x3_reduce
I0701 22:22:07.120596 18021 net.cpp:157] Top shape: 32 144 4 4 (73728)
I0701 22:22:07.120599 18021 net.cpp:165] Memory required for data: 120783232
I0701 22:22:07.120604 18021 layer_factory.hpp:77] Creating layer inception_4d/3x3
I0701 22:22:07.120610 18021 net.cpp:100] Creating Layer inception_4d/3x3
I0701 22:22:07.120613 18021 net.cpp:434] inception_4d/3x3 <- inception_4d/3x3_reduce
I0701 22:22:07.120620 18021 net.cpp:408] inception_4d/3x3 -> inception_4d/3x3
I0701 22:22:07.123071 18021 net.cpp:150] Setting up inception_4d/3x3
I0701 22:22:07.123090 18021 net.cpp:157] Top shape: 32 288 4 4 (147456)
I0701 22:22:07.123093 18021 net.cpp:165] Memory required for data: 121373056
I0701 22:22:07.123100 18021 layer_factory.hpp:77] Creating layer inception_4d/relu_3x3
I0701 22:22:07.123107 18021 net.cpp:100] Creating Layer inception_4d/relu_3x3
I0701 22:22:07.123111 18021 net.cpp:434] inception_4d/relu_3x3 <- inception_4d/3x3
I0701 22:22:07.123118 18021 net.cpp:395] inception_4d/relu_3x3 -> inception_4d/3x3 (in-place)
I0701 22:22:07.123126 18021 net.cpp:150] Setting up inception_4d/relu_3x3
I0701 22:22:07.123129 18021 net.cpp:157] Top shape: 32 288 4 4 (147456)
I0701 22:22:07.123133 18021 net.cpp:165] Memory required for data: 121962880
I0701 22:22:07.123136 18021 layer_factory.hpp:77] Creating layer inception_4d/5x5_reduce
I0701 22:22:07.123145 18021 net.cpp:100] Creating Layer inception_4d/5x5_reduce
I0701 22:22:07.123149 18021 net.cpp:434] inception_4d/5x5_reduce <- inception_4c/output_inception_4c/output_0_split_2
I0701 22:22:07.123155 18021 net.cpp:408] inception_4d/5x5_reduce -> inception_4d/5x5_reduce
I0701 22:22:07.123430 18021 net.cpp:150] Setting up inception_4d/5x5_reduce
I0701 22:22:07.123438 18021 net.cpp:157] Top shape: 32 32 4 4 (16384)
I0701 22:22:07.123441 18021 net.cpp:165] Memory required for data: 122028416
I0701 22:22:07.123446 18021 layer_factory.hpp:77] Creating layer inception_4d/relu_5x5_reduce
I0701 22:22:07.123452 18021 net.cpp:100] Creating Layer inception_4d/relu_5x5_reduce
I0701 22:22:07.123456 18021 net.cpp:434] inception_4d/relu_5x5_reduce <- inception_4d/5x5_reduce
I0701 22:22:07.123461 18021 net.cpp:395] inception_4d/relu_5x5_reduce -> inception_4d/5x5_reduce (in-place)
I0701 22:22:07.123466 18021 net.cpp:150] Setting up inception_4d/relu_5x5_reduce
I0701 22:22:07.123471 18021 net.cpp:157] Top shape: 32 32 4 4 (16384)
I0701 22:22:07.123474 18021 net.cpp:165] Memory required for data: 122093952
I0701 22:22:07.123477 18021 layer_factory.hpp:77] Creating layer inception_4d/5x5
I0701 22:22:07.123486 18021 net.cpp:100] Creating Layer inception_4d/5x5
I0701 22:22:07.123489 18021 net.cpp:434] inception_4d/5x5 <- inception_4d/5x5_reduce
I0701 22:22:07.123497 18021 net.cpp:408] inception_4d/5x5 -> inception_4d/5x5
I0701 22:22:07.124321 18021 net.cpp:150] Setting up inception_4d/5x5
I0701 22:22:07.124333 18021 net.cpp:157] Top shape: 32 64 4 4 (32768)
I0701 22:22:07.124337 18021 net.cpp:165] Memory required for data: 122225024
I0701 22:22:07.124356 18021 layer_factory.hpp:77] Creating layer inception_4d/relu_5x5
I0701 22:22:07.124363 18021 net.cpp:100] Creating Layer inception_4d/relu_5x5
I0701 22:22:07.124367 18021 net.cpp:434] inception_4d/relu_5x5 <- inception_4d/5x5
I0701 22:22:07.124372 18021 net.cpp:395] inception_4d/relu_5x5 -> inception_4d/5x5 (in-place)
I0701 22:22:07.124379 18021 net.cpp:150] Setting up inception_4d/relu_5x5
I0701 22:22:07.124383 18021 net.cpp:157] Top shape: 32 64 4 4 (32768)
I0701 22:22:07.124387 18021 net.cpp:165] Memory required for data: 122356096
I0701 22:22:07.124390 18021 layer_factory.hpp:77] Creating layer inception_4d/pool
I0701 22:22:07.124397 18021 net.cpp:100] Creating Layer inception_4d/pool
I0701 22:22:07.124402 18021 net.cpp:434] inception_4d/pool <- inception_4c/output_inception_4c/output_0_split_3
I0701 22:22:07.124406 18021 net.cpp:408] inception_4d/pool -> inception_4d/pool
I0701 22:22:07.124444 18021 net.cpp:150] Setting up inception_4d/pool
I0701 22:22:07.124449 18021 net.cpp:157] Top shape: 32 512 4 4 (262144)
I0701 22:22:07.124452 18021 net.cpp:165] Memory required for data: 123404672
I0701 22:22:07.124456 18021 layer_factory.hpp:77] Creating layer inception_4d/pool_proj
I0701 22:22:07.124464 18021 net.cpp:100] Creating Layer inception_4d/pool_proj
I0701 22:22:07.124467 18021 net.cpp:434] inception_4d/pool_proj <- inception_4d/pool
I0701 22:22:07.124475 18021 net.cpp:408] inception_4d/pool_proj -> inception_4d/pool_proj
I0701 22:22:07.124858 18021 net.cpp:150] Setting up inception_4d/pool_proj
I0701 22:22:07.124867 18021 net.cpp:157] Top shape: 32 64 4 4 (32768)
I0701 22:22:07.124871 18021 net.cpp:165] Memory required for data: 123535744
I0701 22:22:07.124876 18021 layer_factory.hpp:77] Creating layer inception_4d/relu_pool_proj
I0701 22:22:07.124881 18021 net.cpp:100] Creating Layer inception_4d/relu_pool_proj
I0701 22:22:07.124886 18021 net.cpp:434] inception_4d/relu_pool_proj <- inception_4d/pool_proj
I0701 22:22:07.124891 18021 net.cpp:395] inception_4d/relu_pool_proj -> inception_4d/pool_proj (in-place)
I0701 22:22:07.124897 18021 net.cpp:150] Setting up inception_4d/relu_pool_proj
I0701 22:22:07.124902 18021 net.cpp:157] Top shape: 32 64 4 4 (32768)
I0701 22:22:07.124905 18021 net.cpp:165] Memory required for data: 123666816
I0701 22:22:07.124908 18021 layer_factory.hpp:77] Creating layer inception_4d/output
I0701 22:22:07.124914 18021 net.cpp:100] Creating Layer inception_4d/output
I0701 22:22:07.124917 18021 net.cpp:434] inception_4d/output <- inception_4d/1x1
I0701 22:22:07.124922 18021 net.cpp:434] inception_4d/output <- inception_4d/3x3
I0701 22:22:07.124927 18021 net.cpp:434] inception_4d/output <- inception_4d/5x5
I0701 22:22:07.124930 18021 net.cpp:434] inception_4d/output <- inception_4d/pool_proj
I0701 22:22:07.124934 18021 net.cpp:408] inception_4d/output -> inception_4d/output
I0701 22:22:07.124956 18021 net.cpp:150] Setting up inception_4d/output
I0701 22:22:07.124963 18021 net.cpp:157] Top shape: 32 528 4 4 (270336)
I0701 22:22:07.124965 18021 net.cpp:165] Memory required for data: 124748160
I0701 22:22:07.124969 18021 layer_factory.hpp:77] Creating layer inception_4d/output_inception_4d/output_0_split
I0701 22:22:07.124976 18021 net.cpp:100] Creating Layer inception_4d/output_inception_4d/output_0_split
I0701 22:22:07.124979 18021 net.cpp:434] inception_4d/output_inception_4d/output_0_split <- inception_4d/output
I0701 22:22:07.124985 18021 net.cpp:408] inception_4d/output_inception_4d/output_0_split -> inception_4d/output_inception_4d/output_0_split_0
I0701 22:22:07.124992 18021 net.cpp:408] inception_4d/output_inception_4d/output_0_split -> inception_4d/output_inception_4d/output_0_split_1
I0701 22:22:07.124999 18021 net.cpp:408] inception_4d/output_inception_4d/output_0_split -> inception_4d/output_inception_4d/output_0_split_2
I0701 22:22:07.125003 18021 net.cpp:408] inception_4d/output_inception_4d/output_0_split -> inception_4d/output_inception_4d/output_0_split_3
I0701 22:22:07.125051 18021 net.cpp:150] Setting up inception_4d/output_inception_4d/output_0_split
I0701 22:22:07.125064 18021 net.cpp:157] Top shape: 32 528 4 4 (270336)
I0701 22:22:07.125069 18021 net.cpp:157] Top shape: 32 528 4 4 (270336)
I0701 22:22:07.125073 18021 net.cpp:157] Top shape: 32 528 4 4 (270336)
I0701 22:22:07.125077 18021 net.cpp:157] Top shape: 32 528 4 4 (270336)
I0701 22:22:07.125079 18021 net.cpp:165] Memory required for data: 129073536
I0701 22:22:07.125083 18021 layer_factory.hpp:77] Creating layer inception_4e/1x1
I0701 22:22:07.125092 18021 net.cpp:100] Creating Layer inception_4e/1x1
I0701 22:22:07.125095 18021 net.cpp:434] inception_4e/1x1 <- inception_4d/output_inception_4d/output_0_split_0
I0701 22:22:07.125102 18021 net.cpp:408] inception_4e/1x1 -> inception_4e/1x1
I0701 22:22:07.126308 18021 net.cpp:150] Setting up inception_4e/1x1
I0701 22:22:07.126322 18021 net.cpp:157] Top shape: 32 256 4 4 (131072)
I0701 22:22:07.126325 18021 net.cpp:165] Memory required for data: 129597824
I0701 22:22:07.126332 18021 layer_factory.hpp:77] Creating layer inception_4e/relu_1x1
I0701 22:22:07.126338 18021 net.cpp:100] Creating Layer inception_4e/relu_1x1
I0701 22:22:07.126341 18021 net.cpp:434] inception_4e/relu_1x1 <- inception_4e/1x1
I0701 22:22:07.126348 18021 net.cpp:395] inception_4e/relu_1x1 -> inception_4e/1x1 (in-place)
I0701 22:22:07.126353 18021 net.cpp:150] Setting up inception_4e/relu_1x1
I0701 22:22:07.126358 18021 net.cpp:157] Top shape: 32 256 4 4 (131072)
I0701 22:22:07.126361 18021 net.cpp:165] Memory required for data: 130122112
I0701 22:22:07.126364 18021 layer_factory.hpp:77] Creating layer inception_4e/3x3_reduce
I0701 22:22:07.126372 18021 net.cpp:100] Creating Layer inception_4e/3x3_reduce
I0701 22:22:07.126376 18021 net.cpp:434] inception_4e/3x3_reduce <- inception_4d/output_inception_4d/output_0_split_1
I0701 22:22:07.126384 18021 net.cpp:408] inception_4e/3x3_reduce -> inception_4e/3x3_reduce
I0701 22:22:07.126963 18021 net.cpp:150] Setting up inception_4e/3x3_reduce
I0701 22:22:07.126971 18021 net.cpp:157] Top shape: 32 160 4 4 (81920)
I0701 22:22:07.126974 18021 net.cpp:165] Memory required for data: 130449792
I0701 22:22:07.126979 18021 layer_factory.hpp:77] Creating layer inception_4e/relu_3x3_reduce
I0701 22:22:07.126984 18021 net.cpp:100] Creating Layer inception_4e/relu_3x3_reduce
I0701 22:22:07.126988 18021 net.cpp:434] inception_4e/relu_3x3_reduce <- inception_4e/3x3_reduce
I0701 22:22:07.126994 18021 net.cpp:395] inception_4e/relu_3x3_reduce -> inception_4e/3x3_reduce (in-place)
I0701 22:22:07.127001 18021 net.cpp:150] Setting up inception_4e/relu_3x3_reduce
I0701 22:22:07.127004 18021 net.cpp:157] Top shape: 32 160 4 4 (81920)
I0701 22:22:07.127007 18021 net.cpp:165] Memory required for data: 130777472
I0701 22:22:07.127010 18021 layer_factory.hpp:77] Creating layer inception_4e/3x3
I0701 22:22:07.127018 18021 net.cpp:100] Creating Layer inception_4e/3x3
I0701 22:22:07.127022 18021 net.cpp:434] inception_4e/3x3 <- inception_4e/3x3_reduce
I0701 22:22:07.127028 18021 net.cpp:408] inception_4e/3x3 -> inception_4e/3x3
I0701 22:22:07.129941 18021 net.cpp:150] Setting up inception_4e/3x3
I0701 22:22:07.129966 18021 net.cpp:157] Top shape: 32 320 4 4 (163840)
I0701 22:22:07.129971 18021 net.cpp:165] Memory required for data: 131432832
I0701 22:22:07.129978 18021 layer_factory.hpp:77] Creating layer inception_4e/relu_3x3
I0701 22:22:07.129986 18021 net.cpp:100] Creating Layer inception_4e/relu_3x3
I0701 22:22:07.129990 18021 net.cpp:434] inception_4e/relu_3x3 <- inception_4e/3x3
I0701 22:22:07.129997 18021 net.cpp:395] inception_4e/relu_3x3 -> inception_4e/3x3 (in-place)
I0701 22:22:07.130004 18021 net.cpp:150] Setting up inception_4e/relu_3x3
I0701 22:22:07.130009 18021 net.cpp:157] Top shape: 32 320 4 4 (163840)
I0701 22:22:07.130012 18021 net.cpp:165] Memory required for data: 132088192
I0701 22:22:07.130015 18021 layer_factory.hpp:77] Creating layer inception_4e/5x5_reduce
I0701 22:22:07.130024 18021 net.cpp:100] Creating Layer inception_4e/5x5_reduce
I0701 22:22:07.130028 18021 net.cpp:434] inception_4e/5x5_reduce <- inception_4d/output_inception_4d/output_0_split_2
I0701 22:22:07.130050 18021 net.cpp:408] inception_4e/5x5_reduce -> inception_4e/5x5_reduce
I0701 22:22:07.130338 18021 net.cpp:150] Setting up inception_4e/5x5_reduce
I0701 22:22:07.130347 18021 net.cpp:157] Top shape: 32 32 4 4 (16384)
I0701 22:22:07.130350 18021 net.cpp:165] Memory required for data: 132153728
I0701 22:22:07.130355 18021 layer_factory.hpp:77] Creating layer inception_4e/relu_5x5_reduce
I0701 22:22:07.130362 18021 net.cpp:100] Creating Layer inception_4e/relu_5x5_reduce
I0701 22:22:07.130365 18021 net.cpp:434] inception_4e/relu_5x5_reduce <- inception_4e/5x5_reduce
I0701 22:22:07.130370 18021 net.cpp:395] inception_4e/relu_5x5_reduce -> inception_4e/5x5_reduce (in-place)
I0701 22:22:07.130376 18021 net.cpp:150] Setting up inception_4e/relu_5x5_reduce
I0701 22:22:07.130380 18021 net.cpp:157] Top shape: 32 32 4 4 (16384)
I0701 22:22:07.130383 18021 net.cpp:165] Memory required for data: 132219264
I0701 22:22:07.130388 18021 layer_factory.hpp:77] Creating layer inception_4e/5x5
I0701 22:22:07.130395 18021 net.cpp:100] Creating Layer inception_4e/5x5
I0701 22:22:07.130399 18021 net.cpp:434] inception_4e/5x5 <- inception_4e/5x5_reduce
I0701 22:22:07.130405 18021 net.cpp:408] inception_4e/5x5 -> inception_4e/5x5
I0701 22:22:07.131497 18021 net.cpp:150] Setting up inception_4e/5x5
I0701 22:22:07.131510 18021 net.cpp:157] Top shape: 32 128 4 4 (65536)
I0701 22:22:07.131513 18021 net.cpp:165] Memory required for data: 132481408
I0701 22:22:07.131520 18021 layer_factory.hpp:77] Creating layer inception_4e/relu_5x5
I0701 22:22:07.131525 18021 net.cpp:100] Creating Layer inception_4e/relu_5x5
I0701 22:22:07.131530 18021 net.cpp:434] inception_4e/relu_5x5 <- inception_4e/5x5
I0701 22:22:07.131536 18021 net.cpp:395] inception_4e/relu_5x5 -> inception_4e/5x5 (in-place)
I0701 22:22:07.131542 18021 net.cpp:150] Setting up inception_4e/relu_5x5
I0701 22:22:07.131547 18021 net.cpp:157] Top shape: 32 128 4 4 (65536)
I0701 22:22:07.131551 18021 net.cpp:165] Memory required for data: 132743552
I0701 22:22:07.131553 18021 layer_factory.hpp:77] Creating layer inception_4e/pool
I0701 22:22:07.131559 18021 net.cpp:100] Creating Layer inception_4e/pool
I0701 22:22:07.131563 18021 net.cpp:434] inception_4e/pool <- inception_4d/output_inception_4d/output_0_split_3
I0701 22:22:07.131569 18021 net.cpp:408] inception_4e/pool -> inception_4e/pool
I0701 22:22:07.131605 18021 net.cpp:150] Setting up inception_4e/pool
I0701 22:22:07.131611 18021 net.cpp:157] Top shape: 32 528 4 4 (270336)
I0701 22:22:07.131615 18021 net.cpp:165] Memory required for data: 133824896
I0701 22:22:07.131618 18021 layer_factory.hpp:77] Creating layer inception_4e/pool_proj
I0701 22:22:07.131626 18021 net.cpp:100] Creating Layer inception_4e/pool_proj
I0701 22:22:07.131630 18021 net.cpp:434] inception_4e/pool_proj <- inception_4e/pool
I0701 22:22:07.131637 18021 net.cpp:408] inception_4e/pool_proj -> inception_4e/pool_proj
I0701 22:22:07.132133 18021 net.cpp:150] Setting up inception_4e/pool_proj
I0701 22:22:07.132140 18021 net.cpp:157] Top shape: 32 128 4 4 (65536)
I0701 22:22:07.132143 18021 net.cpp:165] Memory required for data: 134087040
I0701 22:22:07.132148 18021 layer_factory.hpp:77] Creating layer inception_4e/relu_pool_proj
I0701 22:22:07.132153 18021 net.cpp:100] Creating Layer inception_4e/relu_pool_proj
I0701 22:22:07.132158 18021 net.cpp:434] inception_4e/relu_pool_proj <- inception_4e/pool_proj
I0701 22:22:07.132164 18021 net.cpp:395] inception_4e/relu_pool_proj -> inception_4e/pool_proj (in-place)
I0701 22:22:07.132169 18021 net.cpp:150] Setting up inception_4e/relu_pool_proj
I0701 22:22:07.132174 18021 net.cpp:157] Top shape: 32 128 4 4 (65536)
I0701 22:22:07.132177 18021 net.cpp:165] Memory required for data: 134349184
I0701 22:22:07.132180 18021 layer_factory.hpp:77] Creating layer inception_4e/output
I0701 22:22:07.132186 18021 net.cpp:100] Creating Layer inception_4e/output
I0701 22:22:07.132189 18021 net.cpp:434] inception_4e/output <- inception_4e/1x1
I0701 22:22:07.132194 18021 net.cpp:434] inception_4e/output <- inception_4e/3x3
I0701 22:22:07.132201 18021 net.cpp:434] inception_4e/output <- inception_4e/5x5
I0701 22:22:07.132211 18021 net.cpp:434] inception_4e/output <- inception_4e/pool_proj
I0701 22:22:07.132218 18021 net.cpp:408] inception_4e/output -> inception_4e/output
I0701 22:22:07.132239 18021 net.cpp:150] Setting up inception_4e/output
I0701 22:22:07.132244 18021 net.cpp:157] Top shape: 32 832 4 4 (425984)
I0701 22:22:07.132248 18021 net.cpp:165] Memory required for data: 136053120
I0701 22:22:07.132251 18021 layer_factory.hpp:77] Creating layer output
I0701 22:22:07.132259 18021 net.cpp:100] Creating Layer output
I0701 22:22:07.132263 18021 net.cpp:434] output <- inception_4e/output
I0701 22:22:07.132269 18021 net.cpp:408] output -> output
I0701 22:22:07.137185 18021 net.cpp:150] Setting up output
I0701 22:22:07.137218 18021 net.cpp:157] Top shape: 32 63 (2016)
I0701 22:22:07.137223 18021 net.cpp:165] Memory required for data: 136061184
I0701 22:22:07.137233 18021 layer_factory.hpp:77] Creating layer output_output_0_split
I0701 22:22:07.137241 18021 net.cpp:100] Creating Layer output_output_0_split
I0701 22:22:07.137248 18021 net.cpp:434] output_output_0_split <- output
I0701 22:22:07.137255 18021 net.cpp:408] output_output_0_split -> output_output_0_split_0
I0701 22:22:07.137264 18021 net.cpp:408] output_output_0_split -> output_output_0_split_1
I0701 22:22:07.137302 18021 net.cpp:150] Setting up output_output_0_split
I0701 22:22:07.137308 18021 net.cpp:157] Top shape: 32 63 (2016)
I0701 22:22:07.137312 18021 net.cpp:157] Top shape: 32 63 (2016)
I0701 22:22:07.137315 18021 net.cpp:165] Memory required for data: 136077312
I0701 22:22:07.137318 18021 layer_factory.hpp:77] Creating layer loss
I0701 22:22:07.137325 18021 net.cpp:100] Creating Layer loss
I0701 22:22:07.137327 18021 net.cpp:434] loss <- output_output_0_split_0
I0701 22:22:07.137332 18021 net.cpp:434] loss <- label_data_1_split_0
I0701 22:22:07.137337 18021 net.cpp:408] loss -> loss
…
